logs/ppo-kuka-grasp-with-mlp/ppo-kuka-grasp-with-mlp_s0/pyt_save/model.pt (torch_old, 76695 bytes, 16 tensors)

log_std f4 [3]
000000 00 00 00 bf 00 00 00 bf 00 00 00 bf
       -0.5 -0.5 -0.5

weight f4 [64, 6]
000000 80 4f 48 bb 1c 42 60 3e 15 09 ac be 0a d4 99 be
       -0.0030564964 0.21900219 -0.3360068 -0.30044585
000010 28 03 21 be 50 34 e0 3d 80 86 04 bc 74 bb a5 3e
       -0.1572386 0.10947478 -0.008088708 0.32369578
000020 80 65 14 bd 98 3d dd 3d 98 ad fc bd cc 58 a4 bd
       -0.03622961 0.10802764 -0.12337798 -0.08024749
000030 a0 b0 c7 be aa 6e 8a be 0d 54 2c be 60 c6 77 3c
       -0.39001942 -0.27037555 -0.16828938 0.01512298
000040 b8 44 25 3e 58 d6 7a 3e 93 b4 8d be 2a 0b 36 be
       0.16139495 0.24495828 -0.2767683 -0.17777696
000050 70 d7 17 3e fe 91 ad 3e 68 11 ac bd 1a 6a 9c 3e
       0.14828277 0.33900446 -0.084017575 0.305497
000060 a4 c3 86 bd d8 f0 30 3d f6 43 bd 3e 92 e7 c1 be
       -0.06580284 0.043198436 0.36965913 -0.37871987
000070 86 96 83 be 68 ab d3 bd 54 f4 22 be 9e 98 b4 3e
       -0.25700778 -0.103354275 -0.15913516 0.35272688
000080 0b 7c 87 be c0 70 40 be 32 08 92 be 4e c3 c3 be
       -0.26461825 -0.1879301 -0.28521878 -0.38234943
000090 d0 07 74 be 06 ad b3 3e 38 8a 3a 3e 94 9d 4a 3e
       -0.23831105 0.35092944 0.18216789 0.19786674
0000a0 c0 e2 af 3c 4f 53 56 be 3c 74 8d 3d ee 29 c3 be
       0.021470428 -0.20930217 0.069069356 -0.38117927
0000b0 77 08 97 be f0 83 57 be 70 e1 83 3e 00 1c 75 3e
       -0.29498646 -0.21046424 0.25757933 0.23936462
0000c0 c5 66 39 be 80 58 71 bc d8 ae 85 3e fc cb cf 3e
       -0.1810561 -0.014730573 0.26109958 0.40585315
0000d0 44 ea 25 3e 78 e6 61 3d ac 25 8c 3e 89 25 76 be
       0.16202646 0.055151433 0.2737249 -0.24037756
0000e0 04 cd 9b 3d 8a 0e a2 be fc de 90 be b1 f4 57 be
       0.07607463 -0.31651717 -0.28295124 -0.21089436
0000f0 98 27 3d 3e 24 1f 28 3e 79 a1 77 be e8 96 fc 3d
       0.18472135 0.16418129 -0.2418269 0.123334706
000100 e8 7e 65 3e 10 0f 53 bd e0 62 7f 3c 00 ba c1 3d
       0.22411692 -0.051528037 0.0155875385 0.09459305
000110 4e ac 81 3e ea b3 c8 3e 02 14 a1 be 88 33 19 be
       0.2532677 0.39199764 -0.31460577 -0.14961064
000120 dc 4b 24 3e 9c 2f ad 3e ba e4 b5 3e d8 6e b8 3e
       0.16044563 0.33825386 0.35526067 0.36022067
000130 04 65 a6 3d 4d c3 b5 be 18 d4 19 3d 18 c4 82 be
       0.08124736 -0.35500565 0.037555784 -0.25540233
000140 cb cc c2 be 2a b7 b9 3e ca ee 9e 3e a5 81 d0 be
       -0.3804687 0.36272556 0.31041557 -0.4072391
000150 40 7e 9c 3d 20 d9 8c bd a0 96 89 bd 12 5d 3f be
       0.07641268 -0.06877351 -0.067181826 -0.18687847
000160 24 c3 20 3e 3b 9c 77 be 8c 40 19 3e cc 68 53 3e
       0.1569944 -0.24180691 0.14966029 0.20645446
000170 3c a2 95 3e e8 4f 1c 3e a8 e0 ce be b8 97 87 be
       0.29225338 0.15264857 -0.40405774 -0.2648294
000180 9c bc 50 3e cc fe ae 3d 3c 0e a3 be 1d b8 70 be
       0.20384449 0.085446924 -0.31846797 -0.23507734
000190 6c a3 c4 3e f2 d7 8c 3e 58 47 36 be 88 6e d2 bd
       0.3840593 0.27508503 -0.17800653 -0.102749884
0001a0 73 1d c7 be c0 72 f0 bb 20 68 9d be 3d 3b a1 be
       -0.38889655 -0.007337898 -0.30743504 -0.31490508
0001b0 00 46 b8 bc 00 12 7b 3d de 33 2b be 2c 0f 78 3e
       -0.022494316 0.061296463 -0.16719005 0.24224538
0001c0 c3 65 7e be 4e a9 bd 3e 58 3e 8f 3e 01 44 b0 be
       -0.24843507 0.37043232 0.27977252 -0.34426883
0001d0 20 17 d0 bd 20 e8 96 3c 40 f9 73 3d b8 4c c6 3d
       -0.10160661 0.018421233 0.059563875 0.09682602
0001e0 9c 0d 24 3e 10 54 c8 3c 0f fa 4b be 9c d0 45 3e
       0.16020817 0.024454147 -0.19919609 0.1931786
0001f0 55 81 c8 be 60 c7 77 be 84 4c d1 bd cc a2 4b be
       -0.39161173 -0.2419715 -0.10219672 -0.19886321
000200 1c 3f 12 be e4 51 ab be 7c d9 b1 bd 5c b8 b2 3d
       -0.14281887 -0.33460915 -0.0868406 0.0872657
000210 e2 2b 88 be 80 a1 ab bc 20 a1 95 3e a8 e6 2b bd
       -0.2659598 -0.020951033 0.2922449 -0.041968018
000220 20 e5 39 3c f0 41 10 bd a4 35 a9 3d b8 e7 84 3e
       0.011346132 -0.035219133 0.08262184 0.25958037
000230 12 ff c5 3e ca bd 84 3e 0c 73 c6 3e d0 de f1 bc
       0.38671166 0.25926048 0.3875965 -0.02952519
000240 1d c5 bb be ac 2f 46 be 30 53 8e 3e 80 70 2d bb
       -0.36673823 -0.19354123 0.27797842 -0.002646476
000250 d3 c9 4f be 48 2d a0 be 5f 9d c3 be d0 6a b0 be
       -0.20291834 -0.31284547 -0.38206002 -0.3445649
000260 1c 97 a9 bd 54 42 65 3e 54 03 62 3e ad 96 c9 be
       -0.08280775 0.22388583 0.22071582 -0.3937277
000270 88 62 82 3e 05 90 a3 be 30 c2 b0 bd 9e 81 29 be
       0.25465798 -0.31945816 -0.08630788 -0.16553351
000280 50 0b a1 bd 20 29 a4 bd 20 91 bb be 7e 7a b4 be
       -0.07863486 -0.080156565 -0.3663416 -0.35249704
000290 d0 d4 82 bd 00 00 ad 3b 6e e8 3d be 4c 7a 1d 3e
       -0.06388247 0.005279541 -0.18545696 0.15378684
0002a0 0e 22 bc be d0 b3 e1 bc aa d1 b7 3e 89 84 2a be
       -0.36744732 -0.027551562 0.35902148 -0.1665212
0002b0 a0 bf bc 3e a4 65 17 3e 9d a2 bc be 96 3f 84 3e
       0.36864948 0.14784867 -0.36842814 0.25829762
0002c0 00 f6 40 bd 64 9e 3a be 62 25 a7 3e 1d e9 a8 be
       -0.047109604 -0.18224484 0.32645708 -0.3299035
0002d0 08 6f 33 3d 38 0d af bd 1c 44 95 3e 00 64 e9 3d
       0.04380706 -0.08547443 0.29153526 0.113960266
0002e0 9c df 48 3e 04 a3 13 3e 20 0f c9 bd b8 d5 af bd
       0.1961655 0.14417654 -0.09817338 -0.085856855
0002f0 88 40 ac be 14 84 62 3e b4 f5 a5 3e d2 04 8f 3e
       -0.33642983 0.22120696 0.3241402 0.27933365
000300 bd 70 93 be 90 28 95 3c f8 58 93 be bb 20 66 be
       -0.2879695 0.018207818 -0.28778815 -0.22473423
000310 0d 99 73 be 80 dd 0e 3e 89 1e 79 be 00 ee 11 bc
       -0.23788853 0.13951683 -0.24328054 -0.008906841
000320 00 b1 8c 3c ba bd 86 3e 39 01 9e be 38 7f 8f be
       0.017174244 0.26316625 -0.30860308 -0.28026748
000330 4f be 72 be 62 4d 92 3e e4 45 16 be 04 4f b0 3e
       -0.2370541 0.28574663 -0.14675099 0.34435284
000340 30 2b 17 3e 00 be 53 3d 00 2a 47 bb b4 47 a5 bd
       0.14762568 0.05169487 -0.0030390024 -0.08070317
000350 90 cd 51 3d d4 ea be bd 00 fe 3b bb f0 5b 55 3d
       0.05122143 -0.09322134 -0.0028685331 0.05208963
000360 bc 7f a3 be 76 1c 5b be e0 c8 a8 3e cd a1 a9 be
       -0.3193339 -0.21397576 0.32965755 -0.33131257
000370 80 25 f0 bc 16 c6 ce 3e 88 03 17 3e e0 60 3d 3c
       -0.029314756 0.40385503 0.14747441 0.011558741
000380 3b 24 b5 be 44 17 4f 3e 16 e2 94 be 38 56 ed bd
       -0.35379204 0.20223719 -0.2907874 -0.115887105
000390 e8 42 0c be 28 a1 77 bd c0 53 92 3b 62 67 ac 3e
       -0.13697398 -0.060456425 0.00446555 0.33672625
0003a0 f0 c0 50 3d 74 38 bb 3e 60 b9 7f 3e b8 25 84 be
       0.05096525 0.36566508 0.24973059 -0.25810027
0003b0 d8 7e 3b 3e f4 c1 93 be b3 2d 31 be f0 e9 f5 3d
       0.18310106 -0.28858912 -0.17302589 0.12007511
0003c0 1c 09 0a 3e a4 d0 9c 3e 62 93 06 be 00 52 2b 3a
       0.13480037 0.3062793 -0.1314216 0.0006535351
0003d0 58 38 57 3e 07 25 ca be a2 1e 97 3e 8e d8 ac be
       0.21017587 -0.39481375 0.29515558 -0.33758968
0003e0 00 60 b8 3b 54 26 8e bd 75 2c 5c be b0 03 5d 3d
       0.0056266785 -0.06940904 -0.21501334 0.053958595
0003f0 5c d8 ac 3e fc 67 f4 bd 0d 31 78 be 18 9c 1a be
       0.3375882 -0.11933896 -0.24237461 -0.15098608

bias f4 [64]
000000 2c 4c 0a 3e 9a f4 d0 3e 38 d3 58 3e 5a f0 81 3e
       0.1350562 0.40811616 0.21174324 0.25378686
000010 1c 50 12 be 10 97 48 3e 20 25 40 3d 64 ac c7 bd
       -0.14288372 0.19588876 0.046910405 -0.09749678
000020 24 a8 6b be 9c 92 6a be dc d6 a0 be d6 52 8c 3e
       -0.2301336 -0.2290749 -0.31413925 0.2740695
000030 e0 99 94 3e e0 50 3e bd e3 ea 71 be 1c 8e a1 3e
       0.29023647 -0.046463847 -0.23624758 0.31553733
000040 00 ab 85 3e c0 99 f8 3c d9 5f 45 be 2e 1a c0 3e
       0.26107025 0.030346751 -0.19274844 0.37519974
000050 c4 f4 2a 3e cf ad 9e be 6e 0d c8 3e 08 ba 9e 3e
       0.16694933 -0.3099198 0.39072746 0.31001306
000060 c2 5f 18 be b0 01 6b 3e 80 87 6d be 14 07 83 bd
       -0.14880279 0.22949862 -0.2319622 -0.063978344
000070 56 7b b1 3e c0 2f 8a 3c 30 d3 93 be 8e b9 0b be
       0.3466441 0.016868472 -0.2887206 -0.13645002
000080 08 f4 e2 bd 6c 4e a1 bd 78 07 20 3d 90 4f c1 3e
       -0.110817015 -0.07876286 0.039069623 0.37756014
000090 10 0f b3 3c 2a 0f 81 be d0 69 ab 3c a4 72 48 3e
       0.021857768 -0.25206882 0.020924479 0.19574982
0000a0 24 5e 4f 3e c7 08 bf be c8 9c 95 bd 9b 55 9b be
       0.20250756 -0.37311384 -0.07305294 -0.3033875
0000b0 d3 5f 32 be 8c 9e 16 3e 03 6f 94 be 28 66 1b 3e
       -0.17419367 0.14708918 -0.28990945 0.15175688
0000c0 0e 6a b1 3e 10 5a db 3c b4 4f 8b be 9a c7 15 be
       0.34651226 0.026776344 -0.27209246 -0.14626923
0000d0 98 92 b6 3d 94 57 9f be 90 b0 4f 3e 08 c4 bd be
       0.08914679 -0.31121504 0.20282197 -0.37063622
0000e0 bb ee c8 be 7c 19 cb be d0 9c a9 bd d4 8d 8c 3e
       -0.39244637 -0.3966788 -0.08281863 0.27451956
0000f0 04 d6 c5 be c2 bc ad 3e 62 3a 27 be d0 e0 f4 3d
       -0.38639843 0.33933073 -0.16330865 0.11956942

weight f4 [64, 64]
000000 20 ca ba 3b 10 d7 e6 bd e8 4e d4 3d 6e d7 89 3d
       0.0057003647 -0.11271489 0.10366613 0.06730543
000010 80 76 fe 3d 96 55 81 3d 48 fa a8 bd 48 a7 d5 3d
       0.12424946 0.06315152 -0.08250862 0.10432297
000020 20 23 dc 3b 80 cc 72 3d ac 44 cd bd c8 43 13 bd
       0.0067180544 0.059277058 -0.10022864 -0.035953313
000030 54 5c fb bd 90 6b 47 bd a0 e8 dc 3c 5c 00 c9 bd
       -0.122734696 -0.048686564 0.026966393 -0.09814522
000040 10 35 23 3d 2c 6c 89 3d 18 a7 8e 3c 0c 49 ab bd
       0.039845526 0.06710085 0.01741366 -0.08363542
000050 5a 7b c6 bd e4 f5 1d bd 20 bf 60 3d 7a 84 fc 3d
       -0.09691496 -0.038564578 0.05486977 0.123299554
000060 1a 35 93 3d b0 9f 66 bc 00 84 33 3d f0 26 fb bd
       0.07187863 -0.014076158 0.043827057 -0.12263286
000070 62 a6 da bd 3c e7 6e 3d 96 00 91 bd 2c 52 76 3d
       -0.10676266 0.05832599 -0.0708019 0.06013696
000080 f8 b7 b4 bd 64 99 7d bd 48 dd d2 bd 5a 97 85 3d
       -0.08824152 -0.061913863 -0.10296112 0.06523009
000090 60 ae 50 bc 94 04 c5 3d 68 6e 9e 3d dc a7 8d 3d
       -0.012736887 0.09620014 0.07735902 0.06916782
0000a0 20 b6 83 3b 94 4c 1e bd 68 a6 de bc 18 17 88 3c
       0.0040195137 -0.03864725 -0.027178958 0.016612574
0000b0 a4 cd 7d 3d dc 59 b3 bd ea da d6 3d e0 ad 5e bc
       0.061963692 -0.08757374 0.10490973 -0.01359126
0000c0 9a 83 d6 bd c4 82 8a bd 6a 83 e2 3d 74 1e ea 3d
       -0.1047432 -0.06763223 0.110602215 0.1143159
0000d0 aa 20 ed bd 6e 8e b4 3d f8 4b 80 3d f8 87 97 3d
       -0.11578496 0.08816229 0.0626449 0.07398981
0000e0 24 b6 d8 3d a6 f8 89 bd 5c ad 21 3d 04 87 51 3d
       0.105816156 -0.06736879 0.03947197 0.05115415
0000f0 e8 4a 17 bd a8 57 2b 3d 2c 4f 13 bd 60 46 9e 3d
       -0.03693667 0.041831642 -0.035964176 0.07728267
000100 88 0e 0e bd 14 df 3e bd 40 e5 00 3d 68 9a 35 3d
       -0.034681827 -0.046599463 0.03146863 0.044336706
000110 10 26 7a bd 30 0a 35 3c 74 5c 94 3d f0 c4 4b bc
       -0.061071455 0.011049792 0.072441965 -0.01243709
000120 a8 d1 1b 3d b8 f9 f6 bc b0 74 33 3d e6 71 b9 bd
       0.03804174 -0.030148372 0.043812454 -0.090549275
000130 0e 89 96 bd 74 f1 81 bd 4c 44 eb 3d 64 c5 09 bd
       -0.0735036 -0.06344882 0.11487636 -0.033635512
000140 00 f0 b2 b9 cc 0f 78 bd f0 8f ff 3d 0e 07 fa 3d
       -0.0003412962 -0.06056194 0.12478626 0.12208377
000150 60 12 c1 bd 10 88 cf bd d4 0b c2 bd 00 08 1e ba
       -0.09427333 -0.10133374 -0.09474912 -0.0006028414
000160 c4 82 02 bd 4e 90 a7 bd e0 a3 37 bd 18 77 c1 3c
       -0.03186299 -0.08181821 -0.044834018 0.023616359
000170 f4 c1 85 bd 88 e6 e2 3c c8 d1 ea bc b0 18 78 bd
       -0.06531134 0.027697816 -0.028664485 -0.06057042
000180 c8 ae 8c 3c 84 7f d2 3d 88 13 ad bd 00 32 be 3b
       0.017173186 0.10278228 -0.08450991 0.0058043003
000190 20 cf 3c bd e4 36 fb 3d 26 e2 f2 bd d2 6a f5 bd
       -0.046095967 0.12266329 -0.11859541 -0.11983265
0001a0 30 42 fc 3d f8 f7 a1 bd 20 53 c4 3c 40 c1 30 bc
       0.12317312 -0.079086244 0.023965418 -0.010788262
0001b0 78 b6 d7 bc 48 b5 e4 bc 3c ac a2 3d c0 c6 c3 3b
       -0.026332125 -0.027918473 0.07943007 0.0059746206
0001c0 ce 3e f9 bd d8 21 97 bd 7c 8a 2e bd ca d2 80 3d
       -0.12170182 -0.07379502 -0.042612538 0.06290205
0001d0 8e aa a5 bd 2e 63 f1 3d 28 13 e4 bc 18 df b7 bc
       -0.08089171 0.11786495 -0.027841166 -0.022445247
0001e0 42 97 c8 3d e6 aa 80 3d 6a 1e d9 3d ee 14 94 3d
       0.09794475 0.06282596 0.10601504 0.072305545
0001f0 34 51 1b bd 54 d9 a9 bd a0 60 18 bc 0e e0 d3 3d
       -0.03791924 -0.08293405 -0.009300381 0.103454694
000200 5c d6 2b bd 1e 68 ed bd 24 e2 51 3d 6c 35 f9 3d
       -0.041952476 -0.115921244 0.051241055 0.121683925
000210 00 c2 11 bd 5a f9 d3 bd 10 35 e8 bd 90 4e 00 3d
       -0.035585403 -0.103502944 -0.11338246 0.031324923
000220 f0 12 1b bc d8 46 81 bd a8 fb ce 3c c0 6f 42 3d
       -0.009464964 -0.063123405 0.025266483 0.047469854
000230 06 9a cb 3d fc c0 c6 3d b0 46 99 bc 7e bb e1 bd
       0.09941487 0.097047776 -0.018710464 -0.110220894
000240 d8 53 e7 bd 48 06 ef 3d 10 55 62 3d 40 2f 5f 3d
       -0.11295289 0.1167112 0.055256903 0.05448842
000250 20 7f dd bd 5e 0f ed 3d 14 85 f2 3d da 21 e7 3d
       -0.10815263 0.11575197 0.11841789 0.112857535
000260 30 f5 d7 bd 88 30 41 bd 4a 11 b0 bd 56 6c f2 3d
       -0.10544813 -0.047165424 -0.085970476 0.1183707
000270 04 ff 5b bd 84 c1 69 bd 28 1f 86 3d e8 d8 6c bd
       -0.05371 -0.057069317 0.06548911 -0.057824045
000280 dc 2b 7c bd 40 24 33 bc 50 da 44 bc 22 6b c7 bd
       -0.061565265 -0.010933936 -0.01201494 -0.09737231
000290 46 6b d5 3d b4 da 61 bd 30 9d 35 3d 24 aa de 3d
       0.104208514 -0.055140212 0.04433936 0.108722955
0002a0 e2 1a 81 3d 50 fa 90 3c c4 d1 d9 3d 08 a7 89 3c
       0.063039556 0.017697483 0.10635713 0.01680328
0002b0 54 e1 6c bd 06 2d f2 3d 60 5c f2 3c 38 c6 f9 bd
       -0.057832077 0.11824994 0.029585063 -0.1219601
0002c0 18 c3 11 bd fe 60 ae bd e2 72 e0 3d 00 1c a9 bc
       -0.035586447 -0.085145935 0.10959412 -0.020643234
0002d0 b2 59 e9 bd 80 be 00 bc 74 c5 a0 3d 90 04 05 3d
       -0.11394061 -0.007857919 0.07850161 0.032475054
0002e0 8c e5 21 3d 50 34 3e 3c 18 e2 3e 3d e8 7f f9 bc
       0.039525554 0.011609152 0.04660234 -0.030456498
0002f0 78 ac 4b bd 0e 49 ef bd b0 da c0 bd f0 e6 5d 3d
       -0.049725026 -0.11683856 -0.09416711 0.054175317
000300 be 94 97 bd e0 e8 92 3c 10 6d 23 3d a0 01 11 3c
       -0.07401417 0.01793331 0.039898932 0.008850485
000310 40 fa a5 bd f0 d1 f4 3d 26 dd 94 bd 66 8f d2 3d
       -0.08104372 0.11954105 -0.07268743 0.10281257
000320 6e a6 cb bd 58 52 f6 bc 8a 41 8b 3d 7c 31 51 bd
       -0.09943853 -0.030068561 0.0679961 -0.051072583
000330 0e 0d d7 3d 06 2b b0 bd 44 fb d6 bd e0 de 66 bd
       0.10500537 -0.08601956 -0.10497144 -0.056364894
000340 b0 87 a5 3c a8 b6 eb 3d e4 6d 74 bd 0c 1b 37 3d
       0.020206302 0.11509448 -0.059675112 0.04470353
000350 ac 5c 00 bd 28 11 de bc d8 3c bc 3d 7a 65 c6 bd
       -0.03133838 -0.02710779 0.091912925 -0.09687324
000360 60 86 59 3c a8 be f0 3d c8 b5 8c bc a6 c4 c6 3d
       0.013276666 0.11755115 -0.017176524 0.097054765
000370 84 ac 1d bd 00 12 ce 3d f6 a2 f7 bd 28 95 93 bc
       -0.0384946 0.10062027 -0.12091629 -0.01801546
000380 a8 dc b3 bc 78 ee 25 3d 24 df 48 3d a6 8f c4 3d
       -0.021955803 0.040510625 0.04904093 0.09597711
000390 c8 8f 98 bc 60 6d a2 bb ca 4f af 3d 90 88 0a bd
       -0.018623248 -0.004956886 0.085601404 -0.033821642
0003a0 10 6b e0 3d aa 72 aa bd 20 9d 5d bc 00 00 dc bb
       0.109579206 -0.08322652 -0.013526231 -0.006713867
0003b0 a0 75 64 3d 66 05 af 3d d0 4e a2 bc 4e 17 d4 bd
       0.05577624 0.085459515 -0.019812971 -0.103560075
0003c0 28 b1 7d 3d cc 27 19 3d 88 ab 4d 3d 0a eb 9d bd
       0.061936527 0.03739147 0.050212413 -0.07710846
0003d0 ae c2 a4 3d c0 78 f2 3d 30 b5 31 3c cc 1d ef bd
       0.08044945 0.118394375 0.010846421 -0.11675605
0003e0 9c b5 b3 3d c0 cf bd bd 98 63 eb 3c 30 ce 94 3c
       0.087748736 -0.09268141 0.028734013 0.018164724
0003f0 7c a2 6f bd b0 46 32 3d 8a f9 e4 bd c8 39 e9 3c
       -0.058504567 0.043524444 -0.11180408 0.028469935

bias f4 [64]
000000 1a a2 d3 bd 74 c9 7b 3d 8c 69 be bd 44 22 54 bd
       -0.10333653 0.061471418 -0.09297475 -0.05179049
000010 c8 3c c8 3c 60 32 b0 3c 80 f0 d1 3d 00 20 44 b8
       0.024443045 0.021508396 0.1025095 -4.6759844e-05
000020 30 01 43 bd 38 bf 53 bd 40 2c 70 3b c8 f4 bf bd
       -0.047608554 -0.051696032 0.0036647469 -0.0937286
000030 0c b8 c8 bd e4 10 5b bd 40 70 52 3b 28 e3 ac bd
       -0.09800729 -0.053482905 0.0032110363 -0.08441764
000040 20 22 92 bd 64 c8 b6 3d 0e 93 ec 3d 60 60 20 bd
       -0.07135415 0.0892494 0.11551486 -0.03915441
000050 cc a1 db bd 60 05 44 bd f4 a4 4e 3d c0 2a 26 3d
       -0.1072422 -0.04785669 0.05045028 0.040568113
000060 48 b8 1e bd d4 76 e1 bd c8 f3 19 bd 08 f6 e4 bc
       -0.038749963 -0.11008993 -0.037586004 -0.027949348
000070 be 6b 93 3d ac e2 7d bd 68 a4 99 3d 38 0c 8e 3c
       0.071982846 -0.06198375 0.07502061 0.01733981
000080 e0 9e ab bc 60 24 e4 bd 8c bd fc 3d b0 98 b6 bc
       -0.020949781 -0.111397505 0.12340841 -0.022289604
000090 28 13 a1 3d b4 6b 84 bd f8 4c f9 bd e0 0e cc bd
       0.07864982 -0.06465855 -0.12172884 -0.09963775
0000a0 3c 32 83 bd 44 0e 23 bd 40 9a 90 bc f6 81 d5 3d
       -0.06406066 -0.039808527 -0.017651677 0.10425179
0000b0 22 19 ec bd 38 8c 7f 3d de 67 d7 3d 00 e7 52 3a
       -0.11528231 0.062389582 0.10517858 0.0008045286
0000c0 02 a7 9f bd e0 01 83 3b c0 ee f2 3c 38 8a 62 3d
       -0.07795526 0.0039980263 0.02965486 0.055307597
0000d0 d8 a1 1b bd 28 b4 2f bd f0 8b 71 bd 58 9b f7 bd
       -0.037996143 -0.04289642 -0.058971345 -0.12090176
0000e0 a4 d1 33 3d 30 8a c1 bd 30 f7 75 bd 80 9a a8 ba
       0.0439011 -0.09450185 -0.06005019 -0.0012863427
0000f0 f8 59 c5 3d 6a 9e e3 3d 46 34 ba bd 86 06 de 3d
       0.09636301 0.111141995 -0.090920016 0.10841088

weight f4 [64, 64]
000000 e8 51 e5 3d 58 ce ce 3d a0 4d 32 3c f8 9a cd 3d
       0.11197263 0.10097951 0.010882765 0.100393236
000010 6c c3 78 3d fc b1 b7 bd 88 ee 86 bd 80 10 1a 3b
       0.060733244 -0.08969495 -0.06588465 0.002350837
000020 06 6c b5 bd a4 97 28 bd da 65 ce 3d 70 60 6e 3d
       -0.088584945 -0.04116024 0.100780204 0.05819744
000030 f2 f1 de 3d 00 35 7b 3a dc 88 82 bd de 6e a9 3d
       0.10885991 0.0009582788 -0.0637376 0.08273099
000040 b0 fb 16 3c 08 72 ac 3c f0 ee 58 bd 90 50 52 3d
       0.00921528 0.021050468 -0.052962244 0.05134636
000050 5e 11 bd bd 30 48 cc 3d b2 f5 df 3d ac bd 38 3d
       -0.09231828 0.09974706 0.109355345 0.04510276
000060 98 5a c7 3d 44 62 9b 3d ac 8a 43 bd 90 09 de bd
       0.09734076 0.07587102 -0.04773967 -0.10841668
000070 90 bf 86 3c 7e bc a0 3d 70 83 51 bc 40 52 2c 3c
       0.016448766 0.07848452 -0.012787685 0.010517657
000080 d6 be bd 3d a4 66 53 3d 0c 62 bf 3d 88 5c 96 3c
       0.09264915 0.051611558 0.09344873 0.01835467
000090 f0 91 65 3c 30 f0 f4 bc 70 cc ac bc 22 0e 88 bd
       0.014011845 -0.029899687 -0.021093577 -0.066433206
0000a0 d8 27 ab 3d 0c 7c e9 3d c8 02 3e 3d 00 c4 68 3b
       0.08357209 0.11400613 0.04638937 0.0035517216
0000b0 88 03 29 bd c8 c1 fc bd 08 9c bd bc 6a bc b5 bd
       -0.041263133 -0.12341648 -0.02314569 -0.08873828
0000c0 c0 fe bc bd d0 c4 ca bc 38 71 c9 bc 30 91 ce 3c
       -0.09228277 -0.02475205 -0.02459012 0.025215715
0000d0 c6 8d b9 bd 04 fa b7 3d 5a 13 e9 bd d0 7a 72 bd
       -0.09060244 0.089832336 -0.11380644 -0.059199154
0000e0 b8 61 42 bd 00 88 fc 3b a4 a6 53 3d a8 ed 06 bd
       -0.047456473 0.007706642 0.051672593 -0.03294149
0000f0 88 d0 9f 3c b0 6a f2 bc f0 5f 49 bd e0 3b 8f bc
       0.019508615 -0.029591888 -0.04916376 -0.017484605
000100 90 2c ce 3c 76 aa f8 bd e4 2f b2 bd 14 00 c8 3d
       0.025167733 -0.12141888 -0.08700541 0.0976564
000110 c8 84 67 3d c0 08 5b bb 60 5a 81 3b 10 59 8d 3c
       0.056523114 -0.0033421963 0.003947541 0.017254382
000120 18 00 ee 3c f0 c7 ae bd 98 90 0b bd 5c f3 ea bd
       0.02905278 -0.08534229 -0.034073442 -0.11472198
000130 78 43 c9 bd c8 ab c0 bc b0 34 87 bc ba 3a c8 3d
       -0.09827322 -0.023519412 -0.016504616 0.09776826
000140 18 61 b0 3c 88 09 a6 bc 80 f4 62 bb 5a f9 8e 3d
       0.021530673 -0.020268217 -0.0034630597 0.06981154
000150 f4 18 1b bd 30 6e bf bc e8 6b cd bc 74 6e ce bd
       -0.037865594 -0.023367971 -0.025075868 -0.10079661
000160 f0 1d 8f bc 36 a8 ec bd d0 9a 89 bd 92 f2 a2 bd
       -0.01747033 -0.11555521 -0.06718981 -0.07956423
000170 76 b3 be 3d ba d2 eb bd 06 aa f6 3d 1c f9 3f 3d
       0.09311573 -0.11514802 0.12044148 0.04686843
000180 ca 00 ad bd e4 17 d4 3d f0 a5 e1 bc 04 d4 d8 bd
       -0.08447416 0.10356119 -0.027544945 -0.10587314
000190 80 34 8e bc 1c 09 7d 3d ec e7 f8 bd 30 79 19 bc
       -0.017359018 0.061776266 -0.121536106 -0.009367272
0001a0 fc 52 50 3d 14 8a 47 bd 00 87 3a 3c 1c aa 48 bd
       0.05086039 -0.048715666 0.011384726 -0.048990354
0001b0 f6 bf ab bd e8 7b c8 3d b0 c5 b5 bd 00 15 c0 ba
       -0.08386223 0.09789258 -0.088755965 -0.0014654696
0001c0 d0 86 2a 3d aa 10 8f bd 04 37 77 3d f4 98 d4 bd
       0.041632473 -0.069856 0.0603552 -0.10380736
0001d0 38 7e f4 3d 14 06 64 3d c0 f8 90 bc 6c f3 d4 bd
       0.11938137 0.05566986 -0.017696738 -0.103979915
0001e0 c0 a1 7c 3b 74 9c 35 3d 38 09 8b bd 70 f5 80 bc
       0.003854856 0.04433866 -0.06788868 -0.015742034
0001f0 a2 1f ff bd 88 ec ff bd 10 6c 5e bc f6 34 d6 3d
       -0.12457205 -0.12496287 -0.013575569 0.1045932
000200 c0 c7 c0 bb a4 84 20 3d 8c a7 4c bd 80 2e 27 bd
       -0.005883187 0.039188996 -0.049964473 -0.04081583
000210 f0 1c 61 bc 88 6a 81 bd 68 a6 9c 3d 32 a4 9f 3d
       -0.013739809 -0.06319147 0.07648927 0.0779499
000220 b8 03 c7 bd 4c 0a 1d 3d 80 82 53 bd 16 36 93 bd
       -0.09717506 0.038339898 -0.051638126 -0.071880504
000230 50 da 79 bc 98 cd 1e bd 90 c3 91 bd c0 e9 96 3c
       -0.015249804 -0.03877029 -0.07117379 0.018422008
000240 38 1e 92 3d 98 02 9e bc 90 42 0f bc 20 1d 1a 3c
       0.0713467 -0.019288346 -0.008743897 0.009406358
000250 ec 0b 5c bd 82 87 87 3d aa 34 ec 3d e0 2d 3b bc
       -0.053722307 0.06617643 0.115334824 -0.011424512
000260 10 38 0b 3c ba 44 ce 3d da ad d1 3d 3c 70 be bd
       0.008497253 0.10071702 0.10238238 -0.09298751
000270 c8 1b 6d bd 2c 1e fb bd 3c cc 9c 3d 12 cf c7 3d
       -0.057887822 -0.12261614 0.07656142 0.097562924
000280 28 59 3a bd 6c 3c 24 3d 38 0c f8 3c 68 40 dc bd
       -0.045495182 0.040096685 0.030279264 -0.10754472
000290 74 75 4c 3d 90 3a 7b 3d 80 29 34 3b c0 05 52 3c
       0.0499167 0.061335146 0.0027490556 0.012818754
0002a0 88 f3 ed 3c aa 6c b8 3d ae 31 e2 3d 28 2d 93 3c
       0.029046789 0.09005101 0.11044632 0.017965868
0002b0 50 3e 5a 3d cc f3 05 bd da a0 98 3d 60 65 49 bd
       0.053282082 -0.032703206 0.07452555 -0.049168944
0002c0 9c 04 d3 bd a4 37 70 3d d8 e4 3d 3d f0 63 e1 3c
       -0.103036135 0.058646813 0.04636082 0.027513474
0002d0 04 d7 59 3d 80 b4 73 3c e8 40 2e 3d 9c a1 50 3d
       0.05318357 0.0148745775 0.04254237 0.050935373
0002e0 28 19 8a bd e0 76 db bb 88 51 9a 3c 78 77 9b bc
       -0.067430794 -0.0066975206 0.018837705 -0.018977866
0002f0 9e 3d d7 bd 90 45 42 3c ae 73 9c 3d 8e e8 88 bd
       -0.105097994 0.011857405 0.07639252 -0.06684981
000300 d0 57 fb 3d c8 87 e9 3c cc c1 59 3d d8 b4 45 bd
       0.12272608 0.028507128 0.053163335 -0.04826817
000310 4c 69 d1 bd cc 8b 3e bd c0 47 7a 3b 10 4e 69 bd
       -0.10225162 -0.04652004 0.003818974 -0.05695921
000320 2a fc e3 3d 3e d9 a3 bd 26 6c ac bd fc 9b 35 bd
       0.11132081 -0.0800042 -0.08419065 -0.04433821
000330 c0 ab e5 3d 54 1d 6a bd 6e d5 ec 3d 18 0d 76 3d
       0.11214399 -0.057156876 0.11564146 0.06007108
000340 f0 96 9b bc bc 67 84 3d b8 68 73 3d 4c 4d 82 bd
       -0.018992871 0.06465098 0.05942604 -0.063623995
000350 d0 d0 d2 bc c8 f7 f7 3d 22 c5 92 3d 40 12 7a bd
       -0.025734335 0.121078074 0.07166506 -0.06105256
000360 d0 ab 09 bd 68 7c 8f 3d 5e f6 81 3d 40 57 22 3c
       -0.03361112 0.070061505 0.06345819 0.009908497
000370 b2 b8 a4 bd 20 d1 bc bd 80 22 d8 bc dc 3e 3c 3d
       -0.0804304 -0.09219575 -0.026383638 0.045958385
000380 70 56 5a bc 80 09 d6 bd 20 f6 fa bc cc 87 ff 3d
       -0.013326272 -0.10451031 -0.03063494 0.12477073
000390 c4 96 d3 bd 2e ae c6 bd de ed a0 3d c8 b8 fe 3d
       -0.10331491 -0.09701191 0.078578696 0.12437588
0003a0 34 43 f6 bd 48 89 e7 bd 58 18 20 bd ae 3d ff 3d
       -0.12024537 -0.11305481 -0.039085716 0.12462936
0003b0 62 4b 91 bd 60 1a 2f 3c cc fa d0 3d a8 40 35 bd
       -0.07094456 0.010687441 0.10204086 -0.044251114
0003c0 40 03 1d bd f2 d5 ab bd a0 44 9d 3b e4 f1 ee 3d
       -0.038333178 -0.08390416 0.0047994405 0.11667231
0003d0 08 5d 51 3d 9a f0 b3 3d c0 ae 07 bc 90 a6 a2 bc
       0.051114112 0.087861255 -0.00828141 -0.019854814
0003e0 18 f1 b6 bc 40 02 92 3d 60 46 86 bc 92 ac da bd
       -0.02233176 0.071293354 -0.01639098 -0.106774464
0003f0 b4 c9 33 bd b0 5f 48 3d d8 97 f9 3d 40 32 ba bc
       -0.04389353 0.04891938 0.12187165 -0.02272904

bias f4 [64]
000000 88 8d c2 3c e0 8a c6 bc 44 d5 50 3d 44 19 ff bd
       0.023749128 -0.024236143 0.050984636 -0.12455991
000010 f0 27 52 bc 30 7a d0 bc c6 0d c4 bd 60 e1 c1 bb
       -0.012826905 -0.025448889 -0.095729396 -0.0059167594
000020 80 26 ee 3c 58 d7 f8 bd 10 ad d1 3d ee fc 90 3d
       0.029071093 -0.121504486 0.10238087 0.070794925
000030 48 92 fc 3d 8c 12 5c bd 8a 72 b5 bd d6 41 9c 3d
       0.123325884 -0.053728625 -0.08859737 0.07629745
000040 d8 a0 f0 3d e2 35 95 bd e6 2f 96 bd 70 16 17 bc
       0.117494285 -0.07285668 -0.07333355 -0.009221658
000050 fc ad d9 3d d8 58 9e bc 60 32 f5 bd 38 d3 53 bd
       0.10628888 -0.019329473 -0.11972499 -0.051715106
000060 ea 80 92 bd 5c 02 c1 3d fc 3e bb bd 42 19 bf 3d
       -0.07153495 0.09424278 -0.09142873 0.093309894
000070 70 47 3f 3d 60 da 36 bc 5c 85 00 bd 02 6a 8d 3d
       0.046698987 -0.011160463 -0.03137718 0.06904985
000080 cc f4 90 bd e0 c8 45 bd a6 e2 e1 3d 94 f9 45 bd
       -0.07077941 -0.048287272 0.11029558 -0.04833372
000090 90 ef 4f 3c c6 ec cf 3d d4 c6 c8 bd c8 56 a9 3c
       0.0126913935 0.10152583 -0.098035485 0.020671263
0000a0 00 36 63 3b 28 3d 84 bd a8 ae ce 3d 48 4f b0 3d
       0.0034669638 -0.06456977 0.10091907 0.08608872
0000b0 b0 30 06 bc 80 46 5c bc 3c 74 9f 3d d0 65 29 bd
       -0.008190319 -0.013444543 0.07785842 -0.04135686
0000c0 68 ee 90 3d 12 c6 aa bd 2c 4a d2 bd 70 ec aa 3d
       0.070767224 -0.0833856 -0.102680534 0.08345878
0000d0 b8 a1 ae 3d 1c 02 c7 bd e0 7d e2 bc 04 7f 59 3d
       0.08526939 -0.09717199 -0.027647913 0.053099647
0000e0 8a c0 88 3d 58 89 98 3d aa 6a b3 3d 18 54 6a bd
       0.06677349 0.07448071 0.08760579 -0.057209104
0000f0 88 33 da 3c 30 e7 db 3d f0 16 d2 bd f0 0d a6 3d
       0.0266359 0.10737455 -0.10258281 0.08108127

weight f4 [3, 64]
000000 b0 87 01 3d 40 0f b3 3b e0 9a fd 3d 18 aa 54 bd
       0.031623542 0.0054644644 0.12383056 -0.051920027
000010 88 f9 0c bd c0 3d be bd aa 8a d7 3d 7a 20 bb bd
       -0.03441766 -0.09289122 0.10524495 -0.09137054
000020 72 f1 e4 3d 16 61 bc bd a8 be 92 3d bc aa 7f bd
       0.111788645 -0.09198205 0.07165271 -0.062418684
000030 fc f8 e0 3d de 66 ab bd 6a c5 a5 bd b8 b9 13 bd
       0.1098499 -0.0836923 -0.08094294 -0.036065787
000040 0e d1 cd bd 46 55 f3 3d e8 4c 3d 3d 56 0b 8b bd
       -0.1004964 0.11881499 0.04621592 -0.067892715
000050 26 8c c1 bd 54 3b 29 bd f8 cd 99 3c 78 8a 66 bd
       -0.09450559 -0.041316345 0.018774971 -0.056284398
000060 e6 c2 94 3d 7c 5e 7b bd 24 8f 18 3d 36 51 b8 3d
       0.072637364 -0.061369404 0.037245885 0.08999865
000070 52 80 b5 bd 82 e0 c7 bd 2e d8 f4 bd 98 b1 c0 3c
       -0.08862366 -0.09759618 -0.119552955 0.023522183
000080 76 fc c8 3d b8 52 a3 bd 80 ea 89 bc c2 41 a0 3d
       0.09813778 -0.07974762 -0.016835451 0.07825042
000090 16 a3 c6 3d da 61 8c 3d 20 f9 23 3d 58 b7 b1 3c
       0.09699075 0.06854601 0.040032506 0.02169387
0000a0 e0 5e 16 3c ba 7e df 3d 20 34 92 3b bc fa 46 3d
       0.009177893 0.10912843 0.00446178 0.048578963
0000b0 20 77 15 bc bc bf ca 3d 24 b5 fd bd 84 d5 22 bd
       -0.00912264 0.09899852 -0.123880655 -0.039754406
0000c0 52 56 f5 bd f8 79 f0 3c a8 4a ea bc d6 63 d2 bd
       -0.11979355 0.029355034 -0.028600052 -0.102729484
0000d0 fc 14 c4 bd 68 0a 12 3d c8 39 c0 3d dc 13 da 3d
       -0.09574315 0.035654455 0.09386021 0.10648319
0000e0 12 b0 af 3d fe ac ce bd 70 cf d4 3d 86 06 f4 3d
       0.085785046 -0.100915894 0.10391128 0.11915307
0000f0 20 6a c6 3b fe c5 f5 bd 20 17 b9 bd c4 ad e2 bd
       0.0060551316 -0.12000655 -0.09037614 -0.110682994
000100 10 f1 a4 3c c2 87 d2 3d 5e 37 a4 3d 40 01 79 bd
       0.020134479 0.102798 0.08018373 -0.060792208
000110 d8 df 5e bd c8 27 f2 3c f4 62 89 bd b0 df 43 bc
       -0.054412693 0.029559985 -0.06708327 -0.011955187
000120 a8 24 14 3d e8 7c 3b bd a4 71 37 3d d0 ca 91 bc
       0.03616777 -0.045773417 0.04478611 -0.017796904
000130 0a 94 eb 3d 88 55 d2 bd 3c 15 d8 3d 76 a4 ac 3d
       0.115028456 -0.1027022 0.10550925 0.08429806
000140 f0 3f e5 bd f8 a5 f0 3c 78 19 83 bc dc 85 70 3d
       -0.11193836 0.029376015 -0.016003355 0.05872141
000150 ac 0c b9 3d fa 8e 89 bd e2 99 91 bd 34 1b ba bd
       0.0903562 -0.06716724 -0.07109429 -0.0908722
000160 dc d2 b9 3d 18 6c d6 bd 44 61 9f bd 0c a0 e6 3d
       0.09073421 -0.10469836 -0.07782224 0.11260995
000170 ba ec 83 3d 2c b8 af 3d 14 90 dc 3d c8 5a df bd
       0.064416364 0.0858005 0.10769668 -0.10905987
000180 c8 c3 fe bc 50 aa 2c bc e0 cb ec 3d b4 ae 10 bd
       -0.031099215 -0.010538653 0.115623236 -0.03532286
000190 e0 1f 09 bc e6 32 91 3d 8e 5a 85 3d 68 14 a7 bd
       -0.008369416 0.07089786 0.065114126 -0.08158189
0001a0 9a 5e de bd b4 5b 41 bd cc 63 23 3d bc 9c f3 3d
       -0.108578876 -0.047206596 0.039890096 0.11895129
0001b0 78 dc 66 3d fc 20 94 3d 6c 94 1d 3d c4 23 02 bd
       0.0563626 0.07232854 0.038471624 -0.03177239
0001c0 88 fe a8 bc 2e 54 d7 3d d0 1d da 3c f0 9a cc 3c
       -0.020629182 0.10514103 0.026625544 0.024976224
0001d0 a6 cf 95 3d 10 89 b8 3d 34 1a 12 3d a0 ad 4e bc
       0.073149964 0.090105176 0.03566952 -0.012614638
0001e0 68 75 62 bd fc 8d 9b bd 58 f3 7f bd 66 58 d0 3d
       -0.05528775 -0.07595441 -0.06248793 0.10173111
0001f0 88 d0 cb 3d b4 59 87 bd 8a f5 d7 3d 14 47 04 bd
       0.099518836 -0.066089064 0.1054488 -0.032294348
000200 04 61 01 bd d4 86 22 3d 84 17 d0 bd 24 75 97 bd
       -0.031586662 0.039679363 -0.10160735 -0.0739539
000210 70 cc 95 bc 7c e9 20 bd b0 40 81 3d a0 2c f2 bc
       -0.01828596 -0.039285168 0.06311166 -0.029562294
000220 48 26 da bd 56 e2 de bd fa 31 f7 3d b0 e2 66 3d
       -0.10651833 -0.10883014 0.12070079 0.05636853
000230 e4 d2 fe bd 1c 06 d2 bd 18 ad a1 bd 88 d5 e7 3d
       -0.12442568 -0.102550715 -0.07894343 0.11320025
000240 d2 4a 8b 3d 44 21 27 3d 9e ed 90 3d c8 74 ad 3c
       0.0680138 0.04080321 0.07076572 0.02117385
000250 7e 87 b6 3d b8 1e ce bd 18 2b c9 3d 98 08 6a 3d
       0.08912562 -0.10064453 0.098226726 0.057137102
000260 ec f2 29 3d ba b3 a3 3d 10 0f c8 bc 78 3a 73 bd
       0.041491434 0.079932645 -0.024421245 -0.059381932
000270 b4 48 0b bd 2c 08 c0 bd 00 53 5f 3a 3e ac 83 3d
       -0.034004882 -0.09376559 0.0008519143 0.06429337
000280 48 9f be 3c 80 93 8d bb a4 b3 41 3d 6a 71 e9 bd
       0.02326931 -0.004320562 0.04729046 -0.11398585
000290 f2 4f a8 bd 76 77 df bd 9a 82 fe 3d 84 b0 e8 bd
       -0.08218373 -0.10911457 0.12427254 -0.11361793
0002a0 88 37 73 3d 5c 03 b8 3d 80 27 11 bd 00 5f a1 bc
       0.05937913 0.08985016 -0.03543806 -0.01969862
0002b0 38 4c d2 3d e8 3f d1 bd 46 57 ff bd 68 20 96 bc
       0.10268444 -0.10217267 -0.12467818 -0.018326
0002c0 b0 1d 83 bc 58 90 51 bd 70 c3 1f 3c 92 36 88 3d
       -0.016005367 -0.051163048 0.009751186 0.066510335
0002d0 e6 f7 88 3d c4 24 15 3d f6 cb b4 3d b4 af 6e bd
       0.06687908 0.036412016 0.08827965 -0.058273032
0002e0 60 cd 08 3c 5c a6 2b 3d 78 a8 24 3d 10 b1 37 bd
       0.0083497465 0.0419067 0.040199727 -0.044846594
0002f0 68 e3 cf 3d e6 a1 c3 bd 38 e8 72 bd c2 91 f5 bd
       0.10150796 -0.09552364 -0.059303492 -0.11990692

bias f4 [3]
000000 a0 0b 75 3c 08 e6 c6 bd 20 2d b6 3d
       0.014956385 -0.09711844 0.08895326

weight f4 [64, 6]
000000 64 f5 8b be 00 71 dc 3d aa 99 b9 3e 14 2f be 3e
       -0.27335656 0.107637405 0.3625005 0.37145293
000010 ec ce 0a 3e fc ac 18 3e f4 ad 94 3d 64 da 70 3e
       0.13555497 0.14909738 0.072597414 0.2352081
000020 e0 59 e8 bc 22 b6 9c be 46 9b b8 3e 17 62 9d be
       -0.028363168 -0.30607706 0.36055964 -0.307389
000030 8c 49 cb 3e 80 69 b8 3c 20 c4 3f 3e c0 7c 39 3c
       0.3970455 0.022511244 0.1872716 0.011321247
000040 b8 fc 31 3e a8 6e 8e 3e 02 43 c5 be f4 d8 6d 3e
       0.17381561 0.278188 -0.38527685 0.23227292
000050 5e 4f 0d be de 29 bc be c7 97 a7 be 58 f1 15 3d
       -0.13799807 -0.36750692 -0.32732984 0.036607116
000060 9a ae a2 3e f4 c5 c5 be 50 77 f2 3d d8 b9 28 3e
       0.31773835 -0.3862759 0.11839163 0.16477144
000070 d7 9b c0 be 78 e7 b8 3d 81 26 4d be f8 9f 82 3d
       -0.37618896 0.09028524 -0.2003422 0.06378168
000080 d0 fc 1e be 86 ef a9 3e 43 e4 bf be dc 85 5a 3e
       -0.15526128 0.33190554 -0.37478837 0.21340126
000090 58 3e 1d be 88 29 eb 3d 10 76 27 3d 9f a9 c2 be
       -0.15355814 0.11482531 0.040884078 -0.38020036
0000a0 9a b2 46 be 80 09 8d 3c 80 27 4d 3c 54 7d 53 be
       -0.19404069 0.017216444 0.012521625 -0.20653278
0000b0 98 05 6f 3e 19 62 48 be 8a cf 5d be 48 d7 36 3e
       0.23341978 -0.19568671 -0.21661201 0.17855561
0000c0 40 77 33 bd b4 9b 02 3e 66 c8 81 3e d4 76 24 be
       -0.043814898 0.12754709 0.25348204 -0.16060954
0000d0 c8 9c ed 3d e2 b0 a6 3e dc de 84 3d 04 77 b5 3e
       0.11602169 0.32556826 0.064878196 0.35442364
0000e0 88 97 35 3e 02 78 99 3e 76 c7 a2 3e a0 6d 7b 3e
       0.17733586 0.2997437 0.31792802 0.24553537
0000f0 70 ee e2 3d 14 b2 51 3e 24 eb 7f 3e c0 19 e2 3c
       0.110806346 0.20478088 0.24992043 0.02760017
000100 20 5c 8e 3d 1c 52 20 be 40 41 63 bc f4 27 56 3e
       0.06951165 -0.15656322 -0.013870537 0.20913678
000110 30 dc 02 bd 94 5c 06 be e8 cd ce 3d 80 b4 58 bc
       -0.03194827 -0.13121253 0.10097867 -0.013226628
000120 28 7a 0d 3d f0 6d b3 bd c0 83 84 bb 34 91 c9 bd
       0.034540325 -0.08761203 -0.004044026 -0.098421484
000130 ba c5 af 3e fd b8 8d be 5c 5f 9f be ac a2 a2 bd
       0.3433054 -0.27680197 -0.3112744 -0.079411834
000140 f0 7d f8 3c 6e 78 89 3e 20 61 e7 3d 80 aa db bb
       0.03033349 0.26849693 0.11297822 -0.006703675
000150 3b c9 c5 be 01 6c 45 be 90 d7 d9 3d 78 de 05 be
       -0.3863009 -0.19279481 0.106368184 -0.13073146
000160 2e fa 7f be d8 d2 d2 3d 0c 2c 95 3e 08 b3 4d 3d
       -0.2499778 0.102941215 0.29135168 0.050219566
000170 52 8c 9c 3e c0 4d b4 3e c0 cd 25 3c da ff d0 3e
       0.30575806 0.3521557 0.010119855 0.408202
000180 58 12 0a 3e b8 e5 09 3e 4c 8d 17 3e e8 85 c1 be
       0.1348356 0.13466537 0.14799994 -0.37797475
000190 18 52 2a 3e 8e 89 af 3e 6c f3 9b 3d 80 25 c9 3c
       0.16632879 0.34284633 0.076147884 0.024554014
0001a0 64 d5 8e bd 01 2e a4 be d0 1d 54 3d ac 70 28 3e
       -0.06974295 -0.32066348 0.051786244 0.16449231
0001b0 b4 73 1f 3e 06 db bd 3e c9 1e 7a be 4c 09 b8 3e
       0.15571481 0.37081164 -0.24425806 0.35944593
0001c0 8c 39 bb bd 5c dd f3 bd 5e 6d 53 be ad c5 8b be
       -0.091418356 -0.11907455 -0.20647189 -0.27299252
0001d0 f4 8d b3 3d f8 40 b2 bd b4 a1 99 3d fe 73 cb be
       0.0876731 -0.08703798 0.075015455 -0.39736933
0001e0 76 7e 07 be 84 c2 56 3e 7f 3b 4b be 8e 1e c1 3e
       -0.13231835 0.2097264 -0.19846915 0.37718624
0001f0 34 c2 8a be 55 b2 70 be cc 03 8b 3e 76 05 b4 3e
       -0.2710129 -0.23505528 0.27151334 0.35160416
000200 18 19 39 3e 90 4d 5e 3e f7 2b 94 be 80 f0 9d 3d
       0.18075979 0.21709275 -0.28939793 0.07711887
000210 b8 21 1c bd c3 ad 44 be 0c 9c b1 3d 9c 91 29 3e
       -0.038118094 -0.1920691 0.08672342 0.16559452
000220 e6 98 90 be 18 1a 4d bd 60 06 db 3d ae 58 ca 3e
       -0.28241652 -0.050073713 0.10694575 0.39520782
000230 d3 59 a8 be 14 81 b8 3e 58 dd 21 bd a4 02 ba 3d
       -0.3288103 0.3603598 -0.03951773 0.09082535
000240 d5 57 b4 be f8 dc b7 be f9 0a 56 be e0 5c f6 bc
       -0.3522326 -0.35910773 -0.20902623 -0.030073583
000250 5c fe 9e 3d 5e ef ba 3e e0 58 8a bd e8 15 90 3e
       0.07763359 0.36510748 -0.06755233 0.28141713
000260 d0 56 af be ac 0e 6a 3e 62 ac b4 be 2b 64 c6 be
       -0.3424592 0.2285716 -0.35287768 -0.38748297
000270 f8 e2 7a 3e 4c 71 88 be 7c 0e 67 be ae e0 76 be
       0.24500644 -0.2664894 -0.22564119 -0.24109146
000280 34 db e6 bd 6c 24 4c 3e f8 42 51 3e b1 56 9d be
       -0.112722784 0.19935769 0.20435703 -0.30730203
000290 78 cc 06 3d fd d9 ac be 16 79 b1 be d4 8f d5 bd
       0.03290984 -0.33760062 -0.34662694 -0.10427824
0002a0 a0 93 0f bd cc 93 50 3e 04 7a 35 3e 98 8d d0 3d
       -0.035052896 0.2036888 0.17722327 0.10183257
0002b0 c4 79 9f 3e d8 85 3f bd a0 5d 14 bd 46 00 ca 3e
       0.31147587 -0.046758503 -0.0362221 0.39453334
0002c0 90 04 e5 3c a2 55 8e 3e 88 53 50 be c0 16 86 3e
       0.027956277 0.27799708 -0.20344365 0.26189232
0002d0 44 c8 79 3e 16 67 a4 3e 72 e3 77 be 7e 65 c7 be
       0.24392802 0.32109898 -0.24207857 -0.3894462
0002e0 c0 32 94 3d 08 8d 54 bd 90 d3 c5 3e 98 b1 0b be
       0.07236242 -0.05189231 0.38637972 -0.13641965
0002f0 3d 2d 37 be 04 7e 82 3d a4 fa a6 be 21 c3 ab be
       -0.17888351 0.06371692 -0.326131 -0.3354731
000300 6e 96 86 3e 90 03 bf 3d 58 ab a4 3d 50 01 7f bd
       0.26286644 0.09326851 0.08040494 -0.06225711
000310 04 48 69 3e 8c ac 1d be 50 b6 fd 3d 6c 7c 0b 3e
       0.22781378 -0.15397853 0.12388289 0.13621682
000320 88 85 d4 3d 91 c2 8e be 64 97 c1 be 3a 52 47 be
       0.103770316 -0.27882817 -0.37810814 -0.1946496
000330 d7 6e b2 be 79 25 b5 be 0a 57 10 be f8 f9 30 bd
       -0.3485019 -0.35380152 -0.14095703 -0.04320714
000340 98 d3 76 3d 78 b9 57 be 5c 7d 86 be 48 eb dc bd
       0.060260385 -0.21066844 -0.26267517 -0.10787064
000350 ec de 73 3e 74 3f 5b 3e fc 92 c2 3e b4 0f 41 3e
       0.23815507 0.21410924 0.38002765 0.18853647
000360 3c ae 95 3e 40 41 d8 3b 94 d2 80 be 44 9e 00 3e
       0.29234493 0.0065995753 -0.25160658 0.12560374
000370 60 e0 b5 3e 0c 83 12 be 00 75 50 bc fe 04 ba be
       0.35522747 -0.14307803 -0.0127232075 -0.36331934
000380 c2 51 a1 3e 1f c6 a9 be 5a 7c 3a be 00 69 78 3b
       0.3150769 -0.33158967 -0.18211499 0.0037904382
000390 6d 8a 47 be 00 58 df 3a 2d 93 63 be b2 95 ca 3e
       -0.19486399 0.0017039776 -0.22224112 0.39567333
0003a0 4d ca 72 be 88 d2 86 3d f6 c9 c7 be 30 b4 6c 3d
       -0.23709984 0.065831244 -0.3902127 0.057789028
0003b0 d8 b1 8a 3e 38 e2 82 be 1c 9a a5 bd e0 25 7e bc
       0.2708881 -0.25563216 -0.08086035 -0.01551196
0003c0 40 1a 73 bc a8 37 a2 3d 9c bf a8 3e ec ef f5 bd
       -0.014837801 0.07920772 0.32958686 -0.12008652
0003d0 a4 9a 0a 3e 56 bf ab be 1a fa 77 be 7a a5 96 be
       0.13535553 -0.33544415 -0.242165 -0.29423124
0003e0 58 0a c1 3d d0 ef 8e 3d ca 48 cc 3e d0 60 13 3e
       0.09425801 0.06979334 0.39899284 0.143924
0003f0 f8 f8 18 bd 8d b0 26 be a8 4c 22 3d 55 af 43 be
       -0.03734681 -0.16278286 0.039623886 -0.19109853

bias f4 [64]
000000 1a e8 0d be dc 36 99 3e e7 5a 9e be 00 e6 a3 bd
       -0.13858071 0.29924667 -0.30928728 -0.080028534
000010 cd c8 26 be ca 8f 9b 3e 24 29 a4 3e 20 12 0a 3c
       -0.16287537 0.3038314 0.32062638 0.008427173
000020 b8 d9 27 3e de d3 d0 3e 54 8d b3 be 80 e8 fa 3b
       0.16391647 0.40786642 -0.35068762 0.0076571107
000030 da ae be 3e c8 96 da bd 3e c3 9a be 44 1f b9 3e
       0.37242776 -0.106732905 -0.30227083 0.36156666
000040 de 07 c6 3e 24 92 76 3e 44 1e 9d 3e 80 68 0f bd
       0.38677877 0.24079186 0.30687153 -0.03501177
000050 7c 13 91 be 4e d9 b8 be e8 b2 2d 3e 20 31 ea bd
       -0.28335178 -0.3610329 0.16962779 -0.11435151
000060 f8 60 cc 3e 08 a8 3a 3d a0 91 87 3e 90 91 d7 3c
       0.3991773 0.045570403 0.2647829 0.026314527
000070 98 22 c0 bd 0a c1 20 be e1 78 b2 be 96 36 cb be
       -0.09381598 -0.15698639 -0.34857848 -0.39690083
000080 50 2e ab bd 44 8d b5 be 81 dd d0 be 70 60 50 3e
       -0.08358443 -0.3545934 -0.40793994 0.20349288
000090 9d d0 37 be 00 7c f1 39 ec 75 d6 bd bc 62 9d be
       -0.17950673 0.0004605949 -0.104717106 -0.3073939
0000a0 d0 7a ff bd d8 3b 86 be 84 b9 96 3d fc 55 c4 3e
       -0.124745965 -0.26217532 0.07359603 0.3834685
0000b0 70 a9 c6 bd 58 56 6e 3d 1c 97 6e 3e 3c a8 36 3e
       -0.097002864 0.058187813 0.23299831 0.17837614
0000c0 a0 e9 0e 3d d6 66 0f be 00 a2 a3 bd 78 16 66 bd
       0.03489077 -0.14004073 -0.079898834 -0.05617377
0000d0 38 ae d0 3e 90 19 6c 3d 62 d0 88 3e 9c 5b 6e 3e
       0.40757918 0.057641566 0.26721483 0.23277134
0000e0 ee 36 ac 3e 94 47 90 3d 40 6b e7 3b d4 d0 f1 bd
       0.33635658 0.070449024 0.0070623457 -0.11807409
0000f0 8c 97 85 3e be bb 9b 3e 96 70 a2 3e b3 95 b9 be
       0.26092184 0.30416673 0.3172652 -0.36247024

weight f4 [64, 64]
000000 60 7b 11 3c ec 5a 9c bd 48 aa a8 bd a0 6f df bd
       0.008879513 -0.076345295 -0.082356036 -0.10909963
000010 58 82 43 bd ca d7 e4 3d 2a 56 8f 3d 6a f2 b0 bd
       -0.047731727 0.11173971 0.06998856 -0.08639987
000020 68 10 d4 bc 10 82 60 3d f8 2f 96 3d cc 63 b9 3d
       -0.02588673 0.054811537 0.07333368 0.09052238
000030 0a a7 86 bd 50 9e 4e bd 9c 89 8a 3d a8 cd df 3c
       -0.06574829 -0.050443947 0.06764528 0.027319744
000040 3a 0c 84 bd 10 e4 c1 bd 20 29 ee bb ce 87 d9 3d
       -0.064476445 -0.094673276 -0.007268086 0.10621606
000050 58 b9 4a bd 40 48 8e bc 7c a9 41 3d aa a3 d5 bd
       -0.049493164 -0.017368436 0.047280774 -0.10431607
000060 e0 2a 4f bd d8 37 91 3c a8 b1 69 bd 4e 34 c8 3d
       -0.050578 0.017726824 -0.05705419 0.09775601
000070 c0 02 91 bc 88 00 59 3d e8 76 bd bc c0 60 6c bc
       -0.017701507 0.052979022 -0.023127988 -0.014427364
000080 c8 a7 e9 3d 98 d4 cb bd 42 1e b2 bd 08 54 3e bd
       0.11408955 -0.099526584 -0.086971775 -0.046466857
000090 d8 b5 c2 3c 70 49 16 bd c4 e8 20 3d b8 37 6c bd
       0.02376835 -0.03669113 0.039284483 -0.057670325
0000a0 d4 f6 3d 3d e6 c4 ee bd c0 26 9b 3b ec c1 87 3d
       0.04637797 -0.11658649 0.004734844 0.066287845
0000b0 f8 05 b2 3c 1c 65 61 bd 44 ef 3e bd 58 fc de 3c
       0.021731362 -0.055028066 -0.0466149 0.027219936
0000c0 2a aa b0 bd 1c ce c6 bd 80 15 d4 ba 80 72 da bd
       -0.08626206 -0.09707281 -0.0016180724 -0.106663704
0000d0 f0 5b e5 3c 0c 2b a9 bd 52 6d 8d 3d 22 55 95 3d
       0.02799794 -0.08260164 0.06905617 0.072916284
0000e0 22 b9 ce 3d 06 e2 a2 bd 20 34 bf 3b 50 98 ed 3d
       0.10093905 -0.07953267 0.005835071 0.11601317
0000f0 e8 f8 ff bc 8c c6 36 3d 44 da 8a 3d 60 6b 8d 3b
       -0.031246617 0.044622943 0.06779912 0.0043157786
000100 74 98 33 bd cc b1 05 3d 80 b8 0b 3d d0 02 c6 bd
       -0.043846563 0.032640263 0.0341115 -0.09668505
000110 14 c6 3a bd ee 8f d7 bd 4a 6b d8 bd 5a 5f bc 3d
       -0.04559906 -0.10525499 -0.10567339 0.09197874
000120 34 f7 b3 3d e6 73 ae bd b8 76 f7 bd ac e5 cf bd
       0.08787385 -0.085181996 -0.12083191 -0.10151228
000130 f0 fb 72 3d 30 4a d5 3d 80 66 99 bc 34 6b 30 bd
       0.059322298 0.10414541 -0.018725634 -0.043070987
000140 48 18 ce bd 00 42 96 bb f0 03 8e 3d 8c f7 76 3d
       -0.10063225 -0.0045855045 0.06934345 0.060294673
000150 84 5d 51 bd 80 75 50 bd 60 25 b7 3c 68 29 78 3d
       -0.051114574 -0.050893307 0.022356689 0.060586363
000160 10 99 d1 3d 88 a0 d8 3c de cc 9f 3d 2c b5 d0 3d
       0.102342725 0.026443735 0.07802747 0.10190806
000170 c0 98 37 bb 00 48 e5 bc dc 1b 99 3d 60 a0 4c 3c
       -0.002801463 -0.027988434 0.07476017 0.012489408
000180 9e 01 f5 3d 2a 81 8a 3d 90 92 e8 3c 7a 88 eb bd
       0.11963199 0.06762917 0.028390199 -0.1150064
000190 ea 58 9d 3d 34 0e 33 bd 48 2f b7 bc e8 24 65 3d
       0.07682975 -0.043714717 -0.022361413 0.0559434
0001a0 2c a2 0d 3d 28 4f 0b bd 00 58 e6 bb 38 7e c3 bd
       0.034578487 -0.034011036 -0.0070295334 -0.09545559
0001b0 a0 ef 56 bd f0 80 00 bd 00 29 4c 3a 78 fb 00 bd
       -0.052474618 -0.031372964 0.0007788092 -0.03148982
0001c0 84 91 8d 3d 00 ef d4 bb ba 88 a0 bd a8 7f 0c 3d
       0.069125205 -0.0064982176 -0.078385785 0.03430143
0001d0 f0 b5 28 bd 86 e1 b6 3d 00 97 69 bb 84 ac dd 3d
       -0.041189134 0.08929734 -0.0035642982 0.1082392
0001e0 18 d7 dd 3d 7e 76 fc 3d 90 95 5b 3c f8 ac c2 3d
       0.108320415 0.12327288 0.013402358 0.095056474
0001f0 00 74 c4 ba 84 f8 26 3d 44 61 6f bd a0 8c cb bd
       -0.0014988184 0.040764347 -0.05844237 -0.099389315
000200 a8 7d c4 bd 3a 90 f3 bd 40 66 e9 bc 3a 1a dc bd
       -0.095942795 -0.118927434 -0.02849114 -0.1074719
000210 12 f3 c6 3d a2 de d5 bd 08 87 c3 3d 58 6a de 3c
       0.09714331 -0.104428545 0.095472395 0.027150318
000220 30 35 b8 bd 34 48 da 3d 24 0c 2a 3d 70 8a 24 bc
       -0.0899452 0.10658303 0.041515484 -0.010042772
000230 f6 c0 ca 3d 6e 31 d7 bd 38 5b b8 3d 70 fa 32 bc
       0.09900086 -0.10507475 0.090017736 -0.010923967
000240 40 bb 6b 3b 10 25 3b 3d 88 b7 51 bd 80 e8 d8 ba
       0.0035969764 0.045689642 -0.05120042 -0.0016548783
000250 42 8b b8 3d d4 01 4c 3d 74 79 77 3d ba ad da 3d
       0.09010936 0.04980643 0.06041856 0.10677667
000260 58 44 a5 bd 58 36 bb bc f0 35 df 3d 24 04 36 bd
       -0.08069676 -0.022853062 0.1089896 -0.044437543
000270 40 c5 11 3d 7c ed 4a 3d b4 04 e8 bd 80 60 d8 3a
       0.035588503 0.04954289 -0.11329022 0.0016508251
000280 82 8a ec 3d 98 d0 ac bc c4 92 fa bd ae 29 e9 bd
       0.11549856 -0.021095559 -0.122350246 -0.11384903
000290 f8 bf 9b 3c 30 80 22 bd b6 8e aa bd 54 f2 cf 3d
       0.019012436 -0.03967303 -0.08328001 0.10153642
0002a0 fe a3 90 bd 84 9a b8 bd 0a e0 ad 3d 1c 65 c2 3d
       -0.07062529 -0.090138465 0.08489998 0.09491941
0002b0 24 62 2f 3d aa af ff 3d c0 90 4f 3b 3c 10 c0 3d
       0.042818204 0.12484677 0.003167197 0.093780965
0002c0 d2 d2 97 bd 5e 7d d0 bd a0 08 65 3c a2 3b aa bd
       -0.07413258 -0.10180162 0.013979107 -0.08312155
0002d0 c0 00 67 bb 90 a4 4d bc 80 95 9d 3c d0 33 fb bc
       -0.003524825 -0.012551442 0.019236326 -0.030664355
0002e0 a0 2b 12 bc d6 6f e8 bd 74 d9 57 bd ac 23 6b 3d
       -0.008921534 -0.11349456 -0.052697614 0.057407066
0002f0 36 8a de 3d 20 c7 e0 3d 30 b9 c1 3c e0 5a c6 bc
       0.108662054 0.1097548 0.023647875 -0.024213254
000300 0e fa c3 3d c0 81 b8 3b c0 76 17 bb 80 f8 94 3b
       0.095691785 0.005630702 -0.0023111552 0.004546225
000310 c2 9d 9e bd e0 36 16 bd ba dc e6 bd 90 eb 3f bc
       -0.07744934 -0.036673427 -0.11272569 -0.011713877
000320 52 1f f7 bd d0 09 9c 3c 00 20 61 b9 0c 39 35 3d
       -0.12066521 0.019047648 -0.00021469593 0.044243857
000330 2a b9 9f bd 00 2f 5a ba 60 b2 0e bd 08 d9 98 bd
       -0.07798989 -0.00083230436 -0.03483808 -0.074632704
000340 6a a2 c7 3d ca 80 fc bd 48 32 b5 3d e0 80 fd bc
       0.09747775 -0.12329252 0.08847481 -0.030945241
000350 5e 46 8f bd be 92 f8 bd b0 d8 f2 bd 4c 9a 30 bd
       -0.06995843 -0.12137364 -0.11857736 -0.0431159
000360 50 2b a5 3d 98 16 cb 3c c2 fd ba bd e4 ee d7 3d
       0.08064902 0.024791047 -0.09130432 0.10543612
000370 ac bc d1 3d 0c c8 54 3d d8 9a fa 3d 00 84 aa 3d
       0.102410644 0.051948592 0.12236565 0.08325958
000380 00 59 91 3c 0a ef b0 3d 30 de 91 bd c8 a7 84 bc
       0.017742634 0.08639343 -0.07122457 -0.016193286
000390 76 6e 85 bd 88 3b b4 bc 26 9b ca bd b0 07 ae 3d
       -0.065152094 -0.022001043 -0.098928735 0.0849756
0003a0 58 44 4a bd 2c b9 1d 3d 80 c7 ea 3d e8 e3 2c 3d
       -0.049381584 0.03850667 0.11463833 0.042209536
0003b0 20 a4 d8 3b 44 43 fe 3d c0 4b fd bd 7c 1a ed 3d
       0.006611362 0.12415174 -0.12367964 0.11577317
0003c0 a4 f1 dd bd 70 c1 fd 3d 20 d4 22 3c 90 1d 9d bd
       -0.10837105 0.12390411 0.00993827 -0.07671654
0003d0 84 df 2e bd 60 73 83 bd 8c 81 99 3d 14 ec db 3d
       -0.04269363 -0.064184904 0.07495412 0.10738388
0003e0 2c ce 9a 3d 6c 31 bb 3d 1c d1 f6 3d ba 9e e1 bd
       0.075588554 0.09140286 0.12051603 -0.11016603
0003f0 d0 42 57 3d 30 a4 27 3c d4 4c 9a 3d c0 7c 10 3d
       0.05255395 0.010232016 0.07534185 0.03527522

bias f4 [64]
000000 a2 8a fe 3d f8 72 bb 3d 00 a0 10 3a 5e a0 f6 3d
       0.12428786 0.09152788 0.0005517006 0.12042306
000010 00 ae 3d ba b0 b1 70 3c 58 3a b9 3c b0 92 3b bc
       -0.0007235706 0.0146908015 0.022610828 -0.011448547
000020 70 bd c1 bd f8 48 18 3d 90 0a 1f bc a0 3a 4a 3d
       -0.094599605 0.037178963 -0.009707108 0.049372315
000030 a6 a1 8d 3d 28 65 b9 3d 6c ab 08 3d a0 9f cd 3b
       0.069155976 0.09052497 0.033366606 0.0062751323
000040 e8 71 5c bd 52 b7 ef 3d 48 97 e2 bd 20 df 85 bd
       -0.053819567 0.117048874 -0.11064011 -0.06536698
000050 58 2a 80 3c 18 c0 75 3d a0 7a 94 3d c2 5a e2 bd
       0.015645191 0.059997648 0.07249951 -0.11052467
000060 b4 de 31 3d 72 00 d5 bd 48 63 b5 3d ce 87 d9 bd
       0.043425277 -0.104004756 0.08856827 -0.10621606
000070 e8 d0 b5 3c b0 8f a8 3c 10 5c da bc fc f9 67 3d
       0.02219434 0.020576328 -0.026655227 0.056634888
000080 5c 7b b0 3d 14 49 32 3d c8 c5 d6 3c 7e c9 fa 3d
       0.08617279 0.043526724 0.026217356 0.12245463
000090 90 d4 f1 3d 78 4d b0 bd 42 6a e6 3d 4a e3 df 3d
       0.11808121 -0.08608526 0.11250736 0.10932024
0000a0 00 02 d7 39 5c da 2a 3d 3c cf 4e bd d0 77 47 bd
       0.00041009486 0.04171215 -0.050490603 -0.048698246
0000b0 08 c0 a8 3c e4 16 64 bd 70 55 05 3d 20 7a 58 3d
       0.02059938 -0.055685893 0.032552183 0.052850842
0000c0 5c d9 95 3d b8 88 b6 bd a0 b9 81 bd 40 b2 b2 bc
       0.07316849 -0.08912796 -0.06334233 -0.021813512
0000d0 a4 e2 4c 3d a0 56 4e bd 00 07 72 bd f0 88 f1 bc
       0.05002083 -0.05037558 -0.059088707 -0.029484242
0000e0 b4 a0 2e 3d a0 35 a8 3b c4 8b 00 bd 9c 08 02 3d
       0.042633727 0.0051333457 -0.03138329 0.03174649
0000f0 fc 09 c0 bd ac 99 f5 bd 16 b2 90 3d de f6 e4 3d
       -0.09376904 -0.11992201 0.07065217 0.11179899
