logs/ppo-kuka-reach/ppo-kuka-reach_s0/pyt_save/model.pt (torch_old, 40811 bytes, 12 tensors)

log_std f4 [3]
0	0xbf1a84bd	-0.6035879
1	0xbf2c6567	-0.6734223
2	0xbf26fb7f	-0.652275

weight f4 [64, 3]
0	0x3d9fbf96	0.07800214
1	0x3eb27ec8	0.3486235
2	0xbf0dcf99	-0.55394894
3	0xbec525cb	-0.38505396
4	0xbe7c6c2d	-0.24650641
5	0x3e3450d8	0.17608964
6	0x3b1b689b	0.0023713473
7	0x3ef77913	0.4833456
8	0xbd6b1b77	-0.05739924
9	0x3e3f562f	0.1868522
10	0xbe097031	-0.13421704
11	0xbe182ad0	-0.14860082
12	0xbf09b833	-0.5379669
13	0xbed4a0cd	-0.4152893
14	0xbe7bc806	-0.24588022
15	0x3be24b83	0.0069059744
16	0x3e70e440	0.2352457
17	0x3ebee2bc	0.3728236
18	0xbeb34210	-0.3501134
19	0xbe85018c	-0.25977743
20	0x3e5ab76f	0.21359037
21	0x3ee90e04	0.45518506
22	0xbd4aaea5	-0.04948296
23	0x3ee64e64	0.44981682
24	0xbd91400c	-0.07092294
25	0x3d42ada3	0.047528874
26	0x3f088b22	0.533373
27	0xbf0eda45	-0.558018
28	0xbec36bf2	-0.38168293
29	0xbe0b4897	-0.1360191
30	0xbe0ad6be	-0.1355848
31	0x3eea73d0	0.45791483
32	0xbefc9d79	-0.49338892
33	0xbe76ff00	-0.24120712
34	0xbecd4b92	-0.40096718
35	0xbf09b8f6	-0.53797853
36	0xbe9f2f13	-0.31090602
37	0x3ef28f93	0.47375163
38	0x3e4c42c1	0.1994734
39	0x3e878694	0.26469862
40	0x3d40f115	0.047104914
41	0xbe842ef5	-0.25817075
42	0x3de95be6	0.11394481
43	0xbeed5634	-0.4635483
44	0xbed8695a	-0.42267877
45	0xbea057aa	-0.31316882
46	0x3ec35da2	0.38157374
47	0x3ec5e5a4	0.38651764
48	0xbe8e6dcf	-0.27818152
49	0xbcac6a2e	-0.021046724
50	0x3ebdf45f	0.37100503
51	0x3f04c64d	0.5186508
52	0x3e8eceaf	0.27892062
53	0x3df14fc1	0.1178279
54	0x3eb3f2f4	0.35146296
55	0xbebc55f3	-0.36784324
56	0x3df1f4dd	0.11814282
57	0xbed25b96	-0.410855
58	0xbedb02f8	-0.42775702
59	0xbe9c61d2	-0.3054338
60	0x3e8425c1	0.25810054
61	0x3e9064b3	0.28201827
62	0xbea31f81	-0.31859973
63	0x3e3fd14b	0.18732183
64	0x3eadcef7	0.33946964
65	0xbe0c4586	-0.13698396
66	0x3b8b7582	0.0042559514
67	0x3dd93eca	0.10607679
68	0x3e9e57a2	0.30926234
69	0x3f0b17bc	0.5433309
70	0xbedc2a43	-0.43000993
71	0xbe2fa1ca	-0.17151561
72	0x3e86d926	0.26337546
73	0x3f025cc6	0.5092281
74	0x3efda734	0.49541628
75	0x3f05feec	0.52342105
76	0x3e0a4279	0.1350192
77	0xbf01934c	-0.5061538
78	0x3c0f0540	0.008729279
79	0xbed674b7	-0.4188592
80	0xbf05570a	-0.52085936
81	0x3f024894	0.50891995
82	0x3ee2947e	0.44253916
83	0xbf17c882	-0.59290326
84	0x3db58b01	0.088644035
85	0xbdc306b1	-0.09522761
86	0xbd9efcac	-0.07763037
87	0xbe91b840	-0.28460884
88	0x3e528e9b	0.20562212
89	0xbeb6774b	-0.35637888
90	0x3e2307ad	0.15920897
91	0x3e7f23c1	0.24915983
92	0x3ed9710c	0.4246906
93	0x3e3a4070	0.18188643
94	0xbf14c81e	-0.58117855
95	0xbeb49d8a	-0.35276443
96	0x3e9ad3b8	0.30239654
97	0x3e2a87e4	0.166534
98	0xbeec680f	-0.4617314
99	0xbeb6b7a1	-0.35686973
100	0x3f0421f6	0.5161432
101	0x3ebd31f5	0.36952177
102	0xbe36ffef	-0.17871068
103	0xbdf31fe7	-0.11871319
104	0xbf0e5043	-0.5559122
105	0x3cb56647	0.022143496
106	0xbed8d3a9	-0.42348984
107	0xbedd7967	-0.43256685
108	0xbb0d3a02	-0.0021549468
109	0x3d3b152f	0.0456745
110	0xbe849a9d	-0.2589921
111	0x3e9c4dd8	0.3052814
112	0xbeaff4f2	-0.34366566
113	0x3f17c373	0.59282607
114	0x3ebe19d9	0.37129095
115	0xbeec5967	-0.4616196
116	0xbde470ce	-0.11154328
117	0xbc8c5d57	-0.017134352
118	0x3dee7d1b	0.11644956
119	0x3e42e94f	0.19034313
120	0x3e1ca091	0.15295626
121	0x3cc292af	0.023751585
122	0xbe8bdfb8	-0.2731912
123	0x3e47d438	0.19514549
124	0xbf0bef9d	-0.54662496
125	0xbe9da622	-0.30790812
126	0xbe39545e	-0.1809859
127	0xbe8d1d63	-0.27561483
128	0xbe22476c	-0.15847558
129	0xbee4ed2e	-0.44712204
130	0xbe41d7f3	-0.18930034
131	0x3dc29dbc	0.09502742
132	0xbecc45f9	-0.39897135
133	0xbd52d13b	-0.05146907
134	0x3eda3458	0.4261806
135	0x3ba058f5	0.004893417
136	0x3d8ac210	0.06775296
137	0xbe0080fc	-0.12549204
138	0x3e19804a	0.14990345
139	0x3eb52c3a	0.35385305
140	0x3efe68cb	0.49689326
141	0x3ea85e2b	0.32884344
142	0x3f177790	0.5916681
143	0xb9eecb46	-0.00045546348
144	0xbf00ed58	-0.5036216
145	0xbe93dbab	-0.2887853
146	0x3edd16ee	0.43181556
147	0xbccffc93	-0.025388991
148	0xbea4188f	-0.32049987
149	0xbed4c9be	-0.41560167
150	0xbf013f73	-0.5048744
151	0xbef89945	-0.48554435
152	0xbdf94cb4	-0.12172833
153	0x3e9752e0	0.29555416
154	0x3e918b42	0.28426558
155	0xbf152113	-0.5825359
156	0x3eb1a979	0.3469961
157	0xbed04722	-0.4067927
158	0xbdae0266	-0.08496551
159	0xbe645042	-0.22296241
160	0xbdd5bfdf	-0.10436987
161	0xbe1933a3	-0.14961104
162	0xbf09b1bd	-0.5378683
163	0xbef27fe0	-0.47363186
164	0xbd5a8673	-0.053350877
165	0x3cfe2906	0.03102542
166	0xbe6edc2b	-0.23326175
167	0x3e38e7e3	0.18057208
168	0xbee4c34d	-0.44680253
169	0xbd894b6c	-0.06703839
170	0x3efee75a	0.49785882
171	0xbe3715ac	-0.17879361
172	0x3f049b31	0.51799303
173	0x3e078f28	0.13238204
174	0xbf01b76c	-0.50670505
175	0x3e9be759	0.30449942
176	0xbdcd338d	-0.10019598
177	0xbe834718	-0.25640178
178	0x3ece6561	0.4031172
179	0xbf0134c5	-0.50471145
180	0x3be881a0	0.0070955306
181	0xbdac9fe3	-0.084289335
182	0x3ef8f613	0.4862524
183	0x3e31a54d	0.17348213
184	0x3e79eb88	0.24406254
185	0x3e134825	0.1438299
186	0xbde69223	-0.11258342
187	0xbddf424e	-0.109013185
188	0xbeeea439	-0.46609667
189	0x3eab64e4	0.3347541
190	0x3eeb52f3	0.45961723
191	0x3ec6d309	0.38832882

bias f4 [64]
0	0xbeaaa301	-0.33327487
1	0x3d152903	0.036416065
2	0xbec9da30	-0.39424276
3	0xbe92b4f5	-0.28653684
4	0xbea847a9	-0.32867172
5	0x3e348e93	0.17632513
6	0xbea52879	-0.3225744
7	0xbcb92eec	-0.022605382
8	0x3cc6abf6	0.02425192
9	0x3eb6b782	0.3568688
10	0xbeb68f13	-0.35656032
11	0xbec3b6c0	-0.38225365
12	0xbe994fa4	-0.29943573
13	0x3ec3331f	0.3812494
14	0xbe39aab3	-0.18131523
15	0x3eeadb50	0.45870447
16	0x3e4cc5ff	0.19997405
17	0x3d2ec88e	0.042671733
18	0xbd001ba1	-0.03127635
19	0xbdd48fdc	-0.103790015
20	0x3d873324	0.06601551
21	0xbddfe0e2	-0.10931565
22	0xbb36d48b	-0.0027897682
23	0x3d5387e0	0.051643252
24	0xbee048a5	-0.43805423
25	0xbe94c01b	-0.29052815
26	0x3edf5423	0.4361888
27	0xbef0c743	-0.47027025
28	0xbd40c85a	-0.04706607
29	0x3f110777	0.56652015
30	0x3e3025c4	0.17201906
31	0xbbb6ffa3	-0.0055846735
32	0xbef5b23c	-0.47987545
33	0x3e8c3333	0.27382812
34	0xbebc4868	-0.36773992
35	0xbe1deea2	-0.15423062
36	0xbe3492a9	-0.17634071
37	0xbdddb4f9	-0.108255334
38	0xbc6c4322	-0.014420303
39	0x3ee0fdff	0.43943784
40	0x3d1999d6	0.037500225
41	0x3ef52d10	0.47885942
42	0x3ea3d1cf	0.3199601
43	0xbeb482d5	-0.35256067
44	0x3e72fb2b	0.23728625
45	0xbeae4f78	-0.34045005
46	0xbe6446ef	-0.22292684
47	0x3e13c57d	0.14430805
48	0x3e443c92	0.1916373
49	0x3ecd50f9	0.4010084
50	0xbe2b47d7	-0.16726623
51	0xbb99e94f	-0.004697002
52	0x3e8f04e3	0.27933416
53	0xbf09c5d1	-0.5381747
54	0x3ed00f2d	0.40636578
55	0xbee2c049	-0.44287327
56	0x3d30b40f	0.043140467
57	0xbd5d6f85	-0.05406143
58	0xbe951733	-0.29119262
59	0x3da9af01	0.082853325
60	0x3ed598d1	0.41718152
61	0xbe198ee6	-0.14995918
62	0xbeab91f8	-0.33509803
63	0xbe5133c2	-0.204299

weight f4 [64, 64]
0	0xbdf90f4d	-0.121611215
1	0x3cfd1be1	0.030897083
2	0xbd6e0894	-0.05811365
3	0xbdac67c9	-0.08418233
4	0xbda535c5	-0.08066896
5	0x3da589e0	0.08082938
6	0x3d69eaee	0.057108812
7	0x3de69471	0.11258782
8	0x3c851723	0.016246384
9	0xbda4a5fb	-0.08039471
10	0xbd181cb2	-0.03713674
11	0x3ce6e024	0.02818305
12	0x3dc905f8	0.098155916
13	0x3d23c351	0.03998119
14	0xbd90ad49	-0.070643015
15	0xbd646062	-0.05575598
16	0xbe0a3626	-0.13497218
17	0x3d2eabb1	0.042644206
18	0xbd734223	-0.059389245
19	0xbe015433	-0.12629776
20	0x3e003974	0.12521917
21	0xbd1cfaad	-0.038325
22	0x3bef54a9	0.0073037934
23	0x3d375f3d	0.04476856
24	0x3c5f7c8a	0.013640532
25	0xbd240e43	-0.040052664
26	0xbdcd4d30	-0.10024488
27	0x3e00fc9f	0.12596367
28	0x3d18fe7e	0.037352078
29	0x3dda6562	0.106638685
30	0xbcf57513	-0.029963052
31	0x3d0b4333	0.033999633
32	0xbcc521fa	-0.024064053
33	0x3b0b0db5	0.0021217887
34	0xbdaabf4f	-0.083372705
35	0x3cc7a51d	0.024370724
36	0x3d18b93b	0.037286025
37	0x3bfef01c	0.007780088
38	0xbc9e6f01	-0.01934004
39	0xbd92f56f	-0.07175719
40	0x3dcf2a7d	0.10115526
41	0xbdb7ad24	-0.08968571
42	0x3d3d9464	0.046284094
43	0xbd4e0b16	-0.05030354
44	0xbdb79131	-0.0896324
45	0x3c9c6cf3	0.01909492
46	0xbd563836	-0.0522997
47	0x3d347c38	0.044063777
48	0xbc9bb591	-0.019007476
49	0xbdbe40bb	-0.0928969
50	0x3c12e43e	0.00896555
51	0x3d99eae2	0.075155035
52	0x3d608fb8	0.05482456
53	0xbcaf6a14	-0.021412887
54	0xbe0990e2	-0.13434175
55	0xbcc5da2b	-0.024151882
56	0x3cc3a5a5	0.023882696
57	0xbd32707f	-0.043564316
58	0x3d22660a	0.039648093
59	0x3d9e2039	0.0772099
60	0xbd7a70ef	-0.061142858
61	0x3cbc358f	0.022974757
62	0x3d34496a	0.044015326
63	0x3d4e8a59	0.050424907
64	0x3c733f8f	0.0148466965
65	0x3c3e869c	0.011628773
66	0xbdc513a5	-0.096228875
67	0x3cd9c780	0.026584387
68	0x3dbaf315	0.091283955
69	0x3dd1c19e	0.10242008
70	0x3d9e5d86	0.07732682
71	0x3d0a216e	0.033723287
72	0x3cb973e7	0.022638274
73	0xbda58d1e	-0.080835566
74	0xbdd6e172	-0.10492219
75	0xbdcc8cdd	-0.09987805
76	0x3df6b829	0.120468445
77	0x3d9c973a	0.07646032
78	0xbd686ecb	-0.056746285
79	0x3d0338a5	0.032036442
80	0x3d8d6401	0.0690384
81	0x3e033141	0.12811758
82	0x3e06f58b	0.13179605
83	0x3dcd8b74	0.10036364
84	0xbcf7d66c	-0.030253612
85	0xbd429eee	-0.04751485
86	0x3d9038b9	0.07042069
87	0x3daf5aec	0.08562264
88	0xbd8dc691	-0.06922639
89	0x3e185d62	0.14879373
90	0x3d6cbfbf	0.05780005
91	0x3da6970d	0.081342794
92	0xbd020ef7	-0.031752553
93	0x3cc6f07e	0.024284597
94	0xbd505538	-0.05086252
95	0x3dfe3157	0.124117546
96	0xbc322ad6	-0.010874471
97	0x3c37f7fa	0.011228556
98	0x3cd6b966	0.026211452
99	0x3d9491e3	0.07254388
100	0xbd2456d6	-0.040121876
101	0x3ddf1ea3	0.10894515
102	0xbd80f8a0	-0.062974215
103	0x3cb36d8e	0.021902826
104	0xbda22bb3	-0.07918491
105	0xbdfb320b	-0.12265404
106	0xbdd8e152	-0.105898514
107	0x3dcc0ae0	0.09963012
108	0x3d06f0a1	0.032944325
109	0x3dfdb67e	0.12388323
110	0x3dcc7c39	0.09984631
111	0xbdf80953	-0.121111535
112	0xbdc638aa	-0.096787766
113	0xbcc9a47b	-0.024614563
114	0xbd987985	-0.07445053
115	0x3da91bd6	0.082572624
116	0xbdb72dec	-0.08944306
117	0xbd65ac77	-0.05607268
118	0xbe078718	-0.13235128
119	0xbd7bf934	-0.061516955
120	0x3dbbc478	0.09168333
121	0x3dae3119	0.085054584
122	0x3dad8357	0.08472317
123	0x3d674021	0.056457642
124	0x3dda523e	0.10660218
125	0xbcfdf343	-0.030999785
126	0x3d793f82	0.06085158
127	0x3deb0df1	0.114772685
128	0x3d1fb66b	0.038992327
129	0x3dedd174	0.11612216
130	0x3d80f367	0.06296425
131	0x3d8dd4fe	0.06925391
132	0xbd53c70b	-0.051703494
133	0x3d93bcaa	0.07213719
134	0x3beb8854	0.0071878824
135	0xbcff0116	-0.031128448
136	0xbd5a1550	-0.05324298
137	0xbd806f6f	-0.06271254
138	0xbdc9f231	-0.098606475
139	0x3d9a34ed	0.07529626
140	0x3db1a233	0.08673515
141	0xbc1e342c	-0.009655993
142	0xbdbf95db	-0.093547545
143	0x3ddf4d33	0.109033965
144	0x3db5d80e	0.088791
145	0x3c82fb37	0.01598893
146	0xbd8956b4	-0.067059904
147	0x3dd8cfa6	0.10586481
148	0x3d76fe28	0.060300976
149	0xbdaa34c7	-0.08310848
150	0x3e03defb	0.12878029
151	0x3dbac4c5	0.09119562
152	0xbd47d78f	-0.048789557
153	0x3d64814c	0.05578737
154	0xbd8aa45b	-0.067696296
155	0xbcc2ede3	-0.023795074
156	0x3d83c512	0.064340726
157	0x3c56be77	0.013106934
158	0xbd9ff708	-0.07810789
159	0xbd630206	-0.05542185
160	0xbd229b1d	-0.03969871
161	0x3b952aae	0.004552207
162	0x3bc8bfcd	0.00612638
163	0x3dc72177	0.0972318
164	0x3b93ecd6	0.004514317
165	0xbdd74c72	-0.10512628
166	0xb9ea6863	-0.00044709732
167	0x3d89275a	0.06696959
168	0x3d881b62	0.06645848
169	0xbde41665	-0.11137084
170	0xbc8a8da2	-0.016913239
171	0xbdca69ba	-0.09883447
172	0xbd15c29a	-0.03656254
173	0x3d2211ab	0.03956763
174	0xbdb3f5ee	-0.08787142
175	0x3d785a5e	0.060633056
176	0x3dd31155	0.1030604
177	0x3c45a8cf	0.012064173
178	0xbdbe659a	-0.09296723
179	0xbd13ccfa	-0.036084153
180	0x3cec5fe8	0.028854325
181	0xbdcfe4b2	-0.10151042
182	0x3d8cea85	0.068806686
183	0xbdf98e47	-0.121853404
184	0xbdfb7c77	-0.12279599
185	0xbde7315a	-0.1128871
186	0xbcdc2604	-0.026873596
187	0x3dd7a1c3	0.105289005
188	0xbde6c279	-0.112675615
189	0x3dcf8ca3	0.10134246
190	0xbd657944	-0.05602385
191	0x3d250f1b	0.04029761
192	0x3b9b8369	0.00474589
193	0xbde4b8d9	-0.111680694
194	0x3dd4516e	0.10367094
195	0x3d6fce6e	0.058546476
196	0x3df54f13	0.11977973
197	0x3d943943	0.07237484
198	0xbdaf59a5	-0.0856202
199	0x3dbe9bec	0.093070835
200	0x3d2c7c7e	0.042110913
201	0x3da28fe9	0.07937605
202	0xbdca87f6	-0.09889214
203	0xbd29b90c	-0.04143624
204	0xbdf54325	-0.119756974
205	0xbd43780d	-0.04772191
206	0x3bb1e624	0.005429046
207	0xbdb0cd89	-0.08632953
208	0x3d60ab51	0.05485088
209	0x3d8958bd	0.067063786
210	0xb9d71143	-0.00041020857
211	0xbdb3364d	-0.087505914
212	0xbdbf8d25	-0.09353093
213	0xbd1fdfe7	-0.03903189
214	0x3d91dfd2	0.071227685
215	0x3de4aa15	0.11165253
216	0x3d8aad05	0.06771282
217	0xbd531a5d	-0.051538814
218	0x3d3660bd	0.04452585
219	0xbe09b403	-0.13447575
220	0xbe24d167	-0.16095506
221	0x3d84c23c	0.0648236
222	0xbd848e5b	-0.06472465
223	0x3d1fddb7	0.039029803
224	0xbdc1eb5c	-0.09468719
225	0xbd0234e1	-0.03178871
226	0xbdd7498b	-0.10512074
227	0x3d507106	0.050889038
228	0xbc44d24b	-0.012013028
229	0x3d63f666	0.055654906
230	0x3d768f86	0.06019547
231	0x3d95958a	0.07303913
232	0x3a90d114	0.0011048638
233	0xbd23083f	-0.039802786
234	0xbcb997d1	-0.0226554
235	0x3c7760ab	0.015098731
236	0x3db943be	0.09046124
237	0xbdb965b7	-0.09052604
238	0x3dd79316	0.10526101
239	0xbb6de826	-0.0036301701
240	0xbdbada3c	-0.09123656
241	0xbd86a519	-0.06574459
242	0x3dd620a8	0.104554474
243	0x3dee8bc3	0.11647751
244	0xbdf508a7	-0.11964541
245	0x3dae96d2	0.085248604
246	0x3d9ecb7b	0.077536546
247	0x3d8adc1a	0.06780262
248	0x3de6c517	0.11268061
249	0xbd5a08d1	-0.053231064
250	0x3d33fc90	0.043942034
251	0x3db019d2	0.08598675
252	0xbd0da294	-0.034578875
253	0x3d16f671	0.03685612
254	0xbd1c9f40	-0.03823781
255	0x3d8d7dfb	0.069087945

bias f4 [64]
0	0xbd72e9d3	-0.059305023
1	0x3c8151e6	0.015786123
2	0x3df71d77	0.12066167
3	0x3cc10788	0.023563161
4	0xbd53dacf	-0.051722344
5	0x3c4bb434	0.0124331005
6	0xbdf0959e	-0.11747287
7	0xbd9db7d8	-0.07701081
8	0xbce04319	-0.027375745
9	0xbd94f594	-0.07273403
10	0x3dd5037f	0.104010575
11	0x3ccb53f0	0.024820298
12	0x3dd48d3c	0.10378501
13	0xbcc45643	-0.023966914
14	0xbcd3c90b	-0.0258527
15	0x3d098896	0.033577524
16	0xbd07433e	-0.03302311
17	0xbd48be1c	-0.049009427
18	0xbe06ba5b	-0.13157026
19	0x3db6c8fa	0.08925052
20	0x3df162e0	0.11786437
21	0xbdede9f4	-0.11616889
22	0xbd3299ca	-0.043603696
23	0xbdca65f1	-0.09882725
24	0xbd494e7b	-0.04914711
25	0x3dd01aad	0.10161338
26	0x3d818a99	0.063252635
27	0xbc4fb915	-0.012678404
28	0x3d242f8b	0.040084403
29	0x3d1c79b0	0.038201988
30	0x3d86bc2a	0.06578858
31	0xbdcd330a	-0.100195006
32	0x3d1f9b72	0.038966604
33	0xbddb56c6	-0.1070991
34	0xbdbdfa5b	-0.09276267
35	0xbd252624	-0.040319577
36	0xbcabc2bf	-0.020966886
37	0xbde8bbe8	-0.11363965
38	0x3c1ece09	0.009692677
39	0x3cb6f37c	0.0223329
40	0xbd5833e2	-0.052783854
41	0x3cfd12a4	0.030892678
42	0x3deb6302	0.114934936
43	0xbcef9449	-0.029245513
44	0xbd783334	-0.060595706
45	0xbdeb2986	-0.11482529
46	0xbdd0fa85	-0.10204033
47	0xbd9c9736	-0.07646029
48	0xbdb63834	-0.08897439
49	0xbd6e1449	-0.058124814
50	0x3d83327c	0.064061135
51	0x3d30f041	0.043197874
52	0x3de282da	0.11060114
53	0x3df4e83e	0.11958359
54	0xbd466f70	-0.04844612
55	0xbd1fcd2c	-0.039014027
56	0x3b0a2b86	0.002108307
57	0xbdc2f10a	-0.09518631
58	0x3d82cab5	0.063863195
59	0xbc9392c5	-0.018014321
60	0xbde16c9d	-0.110070445
61	0xbdd37599	-0.10325164
62	0xbdaf0a94	-0.085469395
63	0x3ce7848e	0.02826145

weight f4 [3, 64]
0	0x3db3ee61	0.087857015
1	0x3d979a90	0.07402527
2	0xbd1524ca	-0.036412038
3	0xbcea3633	-0.028590297
4	0xbd384260	-0.044985175
5	0xbcd7c9d4	-0.026341356
6	0xbcec9c25	-0.02888305
7	0xbda3aeb2	-0.07992305
8	0x3d91b0c1	0.07113791
9	0xbe11cd4e	-0.14238474
10	0xbd0e0425	-0.03467192
11	0xbcdc00ad	-0.026855791
12	0xbd9a3343	-0.07529309
13	0x3d040002	0.03222657
14	0x3c671c7e	0.014105914
15	0x3df806e9	0.12110693
16	0x3dd40297	0.103520565
17	0xbcdd432a	-0.027009565
18	0x3d91ad7f	0.0711317
19	0xbc259bd8	-0.010107957
20	0xbd7c4541	-0.061589483
21	0x3c8df3b2	0.017328117
22	0x3d0b5c01	0.03402329
23	0x3dc496f5	0.09599105
24	0x3d37dfd8	0.04489121
25	0x3d4e421d	0.05035602
26	0x3d1972b5	0.03746291
27	0xbbdaac83	-0.006673397
28	0x3cfca89c	0.030842118
29	0x3cb0902a	0.021553118
30	0xbde2d5f1	-0.11075962
31	0x3d1411e0	0.03614986
32	0xbd2bec1e	-0.041973226
33	0xbd351588	-0.044209987
34	0x3d04471b	0.032294374
35	0x3cf4f0f9	0.029900061
36	0x3d42341b	0.047412973
37	0x3cbaa08a	0.02278163
38	0x3d70ad94	0.058759287
39	0x3e07f9d9	0.13278903
40	0x3d5e633a	0.05429385
41	0x3d04d352	0.032428093
42	0xbb1bfafd	-0.0023800724
43	0x3db3cd26	0.08779363
44	0x3d81c6fb	0.06336781
45	0x3d210d53	0.039319348
46	0x3c0a7de2	0.008452864
47	0xbd17db0f	-0.037074145
48	0x3bdf709b	0.0068188435
49	0x3de0476d	0.109511234
50	0x3d9be816	0.07612626
51	0xbd9b8c2f	-0.07595097
52	0x3d7d4791	0.06183583
53	0x3dd2378e	0.102645025
54	0x3c992d75	0.018698433
55	0xbda7dfb2	-0.08196963
56	0x3d3166c7	0.043310907
57	0x3baa08bd	0.00518903
58	0x3d751fee	0.059844904
59	0xbde4bb57	-0.11168545
60	0x3d0acab9	0.033884738
61	0xbcaa8321	-0.02081448
62	0x3cbbd779	0.022929894
63	0x3d8340ec	0.06408867
64	0xbb69b4b0	-0.0035660677
65	0xbd64a655	-0.05582269
66	0xbd87ad04	-0.06624797
67	0xbcf22be5	-0.029561946
68	0x3c8d0a73	0.017216897
69	0x3cf8f638	0.030390844
70	0xbc47ea42	-0.0122018475
71	0xbccd098f	-0.025028972
72	0x3c91a813	0.01778034
73	0xbd8661e6	-0.065616414
74	0x3d5421d2	0.051790066
75	0xbc15dd50	-0.009147003
76	0x3d7fb7df	0.062431213
77	0x3da5819b	0.08081361
78	0xbbf7b8cd	-0.0075598718
79	0x3cf0654d	0.029345179
80	0xbd572d54	-0.052533463
81	0x3d02f9fa	0.031976677
82	0x3d942aad	0.07234702
83	0xbc4fec87	-0.01269067
84	0x3cd3017e	0.025757547
85	0xbc05c90f	-0.008165612
86	0x3d57d6ff	0.05269527
87	0x3d23c717	0.03998479
88	0x3d6cbdc7	0.057798173
89	0xbdccd72d	-0.10001979
90	0x3db21c16	0.08696763
91	0x3ce5aeed	0.028037513
92	0x3d461fdf	0.04837024
93	0x3c957bc7	0.018247498
94	0x3d64dfee	0.05587762
95	0x3d555ca3	0.0520903
96	0xbbfd0193	-0.007721135
97	0xbda769a5	-0.08174447
98	0x3da50c7e	0.08059023
99	0xbb9c1d71	-0.004764252
100	0xbc50b823	-0.012739214
101	0x3d05cf3a	0.03266833
102	0x3d56aca3	0.052410733
103	0x3c4ace3e	0.0123782735
104	0xbc88842e	-0.01666459
105	0xbc26e957	-0.0101874685
106	0x3d54c1ec	0.05194275
107	0x3d8fa478	0.07013792
108	0x3d227285	0.039659996
109	0x3d705947	0.05867889
110	0xbd40a620	-0.04703343
111	0x3bdb311f	0.0066892053
112	0xbd9b4698	-0.07581824
113	0x3c7fa73f	0.015603839
114	0xbdde2a12	-0.10847868
115	0xbdbe820f	-0.093021505
116	0xbdd488a7	-0.10377627
117	0x3d7cef5a	0.0617517
118	0xbb22f0cf	-0.0024862771
119	0xbae4ba5f	-0.0017450562
120	0x3bbfb080	0.005849898
121	0xbca2c9ae	-0.019871559
122	0xbd069855	-0.03286012
123	0xbd8ffe25	-0.07030896
124	0xbca43e5c	-0.020049267
125	0xbd658f11	-0.056044642
126	0xbc3d73fe	-0.011563299
127	0x3d5c1e58	0.053739876
128	0xbd9ebc7d	-0.07750795
129	0x3d3cfd69	0.04614011
130	0xbdb3c920	-0.08778596
131	0xbc944c57	-0.018102808
132	0x3c93d449	0.018045561
133	0xba7d1338	-0.0009654048
134	0x3dc6f4f3	0.09714689
135	0xbcbde7fa	-0.023181904
136	0xbd1a533e	-0.037677042
137	0xbd0fff1a	-0.035155393
138	0xbccad325	-0.024758885
139	0xbc74635a	-0.014916265
140	0xbdcac8d1	-0.09901584
141	0xbd1ce864	-0.038307562
142	0x3d31d00a	0.043411292
143	0xbd57a3e6	-0.05264654
144	0xbca38010	-0.019958526
145	0x3ce8d36d	0.028421128
146	0x3df730d0	0.12069857
147	0xbc29e798	-0.010370158
148	0xbda68fd1	-0.081328996
149	0xbb954392	-0.004555174
150	0x3cfeab3b	0.031087508
151	0x3d0fcd7a	0.035108067
152	0xbcf288df	-0.02960628
153	0xbdafec08	-0.08589941
154	0xbd81c540	-0.063364506
155	0xbd486a49	-0.048929486
156	0x3d5ed6fa	0.054404236
157	0xbd7f587a	-0.062340237
158	0x3d019cb5	0.031643588
159	0xbaf13b15	-0.0018404449
160	0xbcc2a1ce	-0.023758795
161	0xbdb6e126	-0.089296624
162	0x3db146de	0.08656095
163	0x3c1d64be	0.009606538
164	0x3d18f836	0.037346087
165	0xbd53fb1f	-0.05175316
166	0xbdccb2dc	-0.09995052
167	0xbda8493e	-0.08217095
168	0x3cc13737	0.023585899
169	0x3bcd3c9f	0.00626333
170	0xbd7ca974	-0.06168504
171	0x3da32274	0.07965556
172	0xbd947ca7	-0.07250338
173	0x3d0a8ebf	0.03382754
174	0x3de53732	0.11192168
175	0xbc8956e0	-0.016765058
176	0xbd43b07e	-0.047775738
177	0x3caacded	0.020850146
178	0x3ccadc39	0.024763213
179	0x3d334502	0.043766983
180	0xbc8efe72	-0.017455313
181	0xbd6ab659	-0.057302807
182	0xbd18cb6c	-0.037303373
183	0xbe07ca95	-0.13260873
184	0x3c95c592	0.018282685
185	0xbd9db466	-0.07700424
186	0xbd340a69	-0.04395524
187	0xbcada130	-0.021195024
188	0x3dc4018f	0.0957061
189	0x3db9cda6	0.090724275
190	0xbd8a3e69	-0.06750185
191	0x3dbd7b25	0.092520036

bias f4 [3]
0	0x3ddacbe6	0.10683422
1	0x3dc87288	0.0978747
2	0x3a933799	0.0011231779

weight f4 [64, 3]
0	0x3ea974c9	0.33096913
1	0x3e01534c	0.12629431
2	0xbf1f1114	-0.62135434
3	0xbe3f0197	-0.1865295
4	0x3f17ef4c	0.59349513
5	0xbec5d2ab	-0.3863729
6	0xbe3f0560	-0.18654394
7	0x3f1a76b1	0.6033736
8	0x3e47d7ae	0.19515869
9	0x3ed05559	0.40690115
10	0xbdec694a	-0.1154352
11	0xbe6e209f	-0.23254631
12	0x3ea9ad5c	0.33140075
13	0xbe3d7a84	-0.18503767
14	0xbe3adf6b	-0.1824929
15	0xbe6f2b07	-0.23356257
16	0xbe39c954	-0.18143207
17	0xbe9f995a	-0.31171685
18	0x3eb27087	0.34851477
19	0x3f0a2d8e	0.5397576
20	0x3a3d0d71	0.0007211781
21	0x3ec796bf	0.38982198
22	0x3ebc16c1	0.3673611
23	0xbeb1347b	-0.34610352
24	0xbecca5ea	-0.39970332
25	0x3efe9da5	0.49729648
26	0x3ed51a59	0.41621664
27	0xbe3cf396	-0.18452296
28	0xbe9e15fa	-0.30876142
29	0x3f10be9f	0.56540865
30	0x3e31c81e	0.17361495
31	0x3eaedd4f	0.3415322
32	0xbe1523a9	-0.14564385
33	0x3c88f868	0.016720012
34	0xbea2bafe	-0.3178329
35	0xbe0da81e	-0.13833663
36	0xbeb2f9b7	-0.34956142
37	0x3f127272	0.5720588
38	0x3f169c88	0.588326
39	0x3dfafb2f	0.12254941
40	0xbdedd9d0	-0.1161381
41	0xbebaf8b2	-0.36517864
42	0xbee59b9e	-0.4484529
43	0x3d9999eb	0.07500061
44	0xbe8a509b	-0.27014622
45	0xbe972f05	-0.2952806
46	0xbe358b49	-0.17728914
47	0x3e23bc0e	0.15989706
48	0x3dfc41e1	0.12317253
49	0xbd4d5f82	-0.05013991
50	0x3eae30ad	0.34021512
51	0xbe8b9413	-0.2726141
52	0xbe4c1dd0	-0.19933248
53	0xbe12f28b	-0.14350335
54	0xbc4b237a	-0.012398595
55	0x3c83adc4	0.016074069
56	0x3d03a41c	0.03213893
57	0x3d88a15f	0.06671404
58	0xbe20e225	-0.15711267
59	0xbe54f595	-0.20796807
60	0xbda72a1a	-0.08162327
61	0x3e9b3d9b	0.3032044
62	0xbf23a08c	-0.6391685
63	0xbec8852e	-0.39164108
64	0x3f4d27be	0.80138767
65	0x3e31eea8	0.17376196
66	0xbd6aa72e	-0.05728834
67	0x3d4d7e26	0.050169133
68	0x3dff4a39	0.12465329
69	0x3e1f861b	0.15578501
70	0xbf11e4b8	-0.5698962
71	0xbe11d823	-0.14242606
72	0xbece9476	-0.40347642
73	0xbef7da9f	-0.48408982
74	0xbdf83af2	-0.12120618
75	0xbcccd150	-0.025002152
76	0x3f3a2277	0.7270884
77	0xbdf6dfd2	-0.12054409
78	0xbd84673a	-0.064650014
79	0xbcd4363a	-0.025904763
80	0x3eaebee5	0.34130016
81	0xbdc7f5a0	-0.09763646
82	0xbdaa532a	-0.083166435
83	0xbe164b43	-0.14677148
84	0xbea6290a	-0.32453185
85	0xbd6513ab	-0.05592696
86	0xbef24fea	-0.47326595
87	0xbe5ec4a9	-0.21754707
88	0x3e288716	0.16457781
89	0x3f07b16e	0.5300511
90	0xbf1d9663	-0.61557597
91	0x3f9cfa29	1.2263843
92	0x3e37e17a	0.17957106
93	0xbe7df17c	-0.2479915
94	0x3ea5cc50	0.3238244
95	0xbe1d24e3	-0.15346102
96	0xbedab325	-0.427148
97	0xbee483d9	-0.44631842
98	0x3f22c2cf	0.63578504
99	0xbee2b0ae	-0.4427542
100	0x3e5689ed	0.20951052
101	0x3e6f1d28	0.23350966
102	0xbe4226f1	-0.18960167
103	0x3ec1453e	0.3774814
104	0xbe9af5f4	-0.30265772
105	0xbef7123c	-0.482561
106	0x3ed403da	0.41409189
107	0xbe7838c6	-0.24240407
108	0xbd18113d	-0.037125815
109	0xbd6a1f23	-0.0571586
110	0xbe9c5a7c	-0.30537784
111	0x3eaad096	0.33362263
112	0xbe215f8e	-0.15759107
113	0x3f23608c	0.63819194
114	0x3e81cb34	0.25350344
115	0x3d7b7c75	0.06139799
116	0xbeff0e75	-0.49815717
117	0x3c88de9d	0.016707713
118	0x3e00eadd	0.12589593
119	0xbedb6063	-0.42846975
120	0xbd76cb60	-0.060252547
121	0xbf6fb1d2	-0.9363071
122	0xbf039f96	-0.51415384
123	0xbd227c61	-0.0396694
124	0x3f073348	0.52812624
125	0xbdcfe978	-0.101519525
126	0x3e186712	0.14883068
127	0xbeb20c28	-0.347749
128	0xbe18e26d	-0.14930125
129	0xbde2def8	-0.11077684
130	0xbeab9031	-0.33508447
131	0x3ee17b14	0.44039214
132	0x3ec3f4b3	0.38272628
133	0xbef3376d	-0.47503224
134	0x3d8fdb93	0.07024302
135	0x3d528342	0.05139471
136	0xbedb222d	-0.42799512
137	0xbdedf2cb	-0.11618575
138	0xb90b1747	-0.00013264744
139	0xbf0a76b4	-0.54087377
140	0xbd38fb02	-0.045161255
141	0x3e82d9c0	0.25556755
142	0xbe9d387c	-0.30707157
143	0xbca3e5a1	-0.020006957
144	0xbd7ddd03	-0.06197835
145	0xbeb74157	-0.35792038
146	0x3f22cd54	0.63594556
147	0x3e86e9c6	0.2635023
148	0x3ec84ccb	0.39121088
149	0xb81fc0d3	-3.8088136e-05
150	0x3ecaa977	0.39582416
151	0x3f1c247b	0.60993165
152	0xbe19f5c5	-0.1503516
153	0xbe32e4a8	-0.17470038
154	0xbe4314a8	-0.19050848
155	0x3efcdc52	0.4938684
156	0x3ec1dd97	0.37864372
157	0xbee840e0	-0.45361996
158	0x3db331c7	0.08749729
159	0x3e3065ed	0.17226382
160	0xbeccf1b7	-0.40028164
161	0x3e5aeaa2	0.21378568
162	0x3e476ca5	0.19475038
163	0xbd870ebb	-0.065946065
164	0x3d8bf789	0.06834323
165	0x3dab4c75	0.083641924
166	0x3d00ebf2	0.031475015
167	0x3f0fef41	0.5622445
168	0x3e58d178	0.21173656
169	0x3dd3a138	0.103334844
170	0xbe9baf1b	-0.30407032
171	0x3e8fd07d	0.2808875
172	0xbe320daf	-0.17388032
173	0xbf27046d	-0.6524113
174	0x3e3dc9f5	0.18534072
175	0xbdd166f0	-0.10224712
176	0x3d6b759a	0.0574852
177	0x3e3ff704	0.18746573
178	0xbe995b2f	-0.2995238
179	0x3e5260b1	0.20544697
180	0x3e6398a9	0.22226204
181	0xbeb5d837	-0.3551652
182	0xbe58de21	-0.21178485
183	0x3db4c244	0.08826116
184	0x3e17c99b	0.14823
185	0xbf0ba80b	-0.5455329
186	0x3d03150d	0.032002497
187	0x3f12ab89	0.5729299
188	0xbf06ebd6	-0.5270361
189	0x3f04853d	0.51765805
190	0x3deadd38	0.114679754
191	0x3e22c3a7	0.15894948

bias f4 [64]
0	0xbe8bd9f5	-0.27314726
1	0xbec84ad0	-0.39119577
2	0xbe2649ff	-0.16239165
3	0xbdb4163b	-0.087933026
4	0xbe7259ba	-0.2366704
5	0x3ef343a3	0.4751254
6	0xbedc160e	-0.42985576
7	0xbedf205e	-0.43579382
8	0xbdcadc75	-0.0990533
9	0x3ed22fd1	0.41052106
10	0xbe8728b1	-0.26398233
11	0x3ee8a7e9	0.45440605
12	0x3e6b837b	0.22999375
13	0xbdd87cd9	-0.10570688
14	0x3e9fafdc	0.31188858
15	0x3ea369ff	0.31916806
16	0xbe75f638	-0.24019706
17	0x3d3897b4	0.04506655
18	0x3f09340b	0.53595036
19	0x3e46d791	0.1941817
20	0xbe73a328	-0.23792708
21	0xbd5294df	-0.051411506
22	0x3e86253f	0.26200292
23	0x3e8458f1	0.25849107
24	0x3e1aacad	0.15104933
25	0xbea4cd66	-0.32187957
26	0xbebb2064	-0.3654815
27	0xbd69cdac	-0.05708091
28	0x3e81e278	0.25368094
29	0x3d1a967d	0.037741173
30	0xbedd7ddf	-0.43260095
31	0xbdd378ae	-0.10325752
32	0x3f19c166	0.6006073
33	0xbed2b15e	-0.41150945
34	0xbea93a26	-0.33052176
35	0x3ea19be2	0.31564242
36	0x3f0cc6c3	0.54990786
37	0xbef05dd9	-0.469466
38	0xbf04be3f	-0.5185279
39	0xbe1a0527	-0.15041028
40	0x3f0a8e50	0.541234
41	0xbe9ca078	-0.30591178
42	0x3d10f3d3	0.03538878
43	0x3ee02b2b	0.43782935
44	0xbe2e3a51	-0.17014433
45	0x3d1d0da2	0.03834308
46	0xbe91c576	-0.28470963
47	0xbd48e9ba	-0.049051024
48	0x3ef95bab	0.4870275
49	0xbc9bb61d	-0.019007737
50	0x3ea00e70	0.31261015
51	0x3d462874	0.048378423
52	0xbe35c209	-0.177498
53	0xbd89b2bd	-0.06723545
54	0x3e853142	0.26014143
55	0xbdbc6cb6	-0.092004225
56	0xbed1d4a8	-0.40982556
57	0xbe487604	-0.1957627
58	0x3e044f43	0.12920861
59	0x3f01d794	0.5071957
60	0xbdacac54	-0.084313065
61	0xbeff6cd7	-0.49887726
62	0xbed7e082	-0.42163473
63	0xbef14101	-0.47119907

weight f4 [64, 64]
0	0xbd17abfe	-0.03702926
1	0x3dbbe999	0.091754146
2	0x3ce84ef9	0.02835797
3	0x3c6b0951	0.014345483
4	0x3c9fd990	0.019512922
5	0x3dc631d0	0.0967747
6	0x3ca157b6	0.019695144
7	0x3c96658a	0.018358964
8	0x3d0da72a	0.03458325
9	0x3d969ce7	0.073541455
10	0xbe04ee35	-0.12981494
11	0xbd9b5197	-0.075839214
12	0x3d564876	0.052315198
13	0xbcf7a190	-0.030228406
14	0xbca51225	-0.020150254
15	0xbd3e55ec	-0.04646866
16	0xbdd2f25a	-0.10300131
17	0x3df7859f	0.12086033
18	0x3da09726	0.07841329
19	0xbd77943d	-0.060444105
20	0x3c139a02	0.009008886
21	0xbd33f80d	-0.04393773
22	0x3dd0d33f	0.10196542
23	0xbddc43f4	-0.107551485
24	0xbd9522b4	-0.0728201
25	0xbe0071ce	-0.12543413
26	0x3d92c6f7	0.07166856
27	0xbd3c54d6	-0.045979343
28	0x3e1b8751	0.15188338
29	0x3d7815aa	0.060567535
30	0xbdc416ec	-0.095746845
31	0xbd13b2d7	-0.036059227
32	0xbcb2c451	-0.021822127
33	0x3d79775a	0.06090484
34	0xbd3fd67a	-0.0468354
35	0x3daebf30	0.0853256
36	0x3b9895ea	0.004656543
37	0xbddc6ef5	-0.10763351
38	0xbdb72d54	-0.089441925
39	0xbda90e44	-0.08254674
40	0x3dc11604	0.09428027
41	0x3be7bbe4	0.007071959
42	0xb9aa8838	-0.00032526418
43	0xbd752d60	-0.059857726
44	0xbe21698b	-0.15762918
45	0xbd53b405	-0.051685352
46	0xbdc5d52a	-0.096597984
47	0xbe1520f8	-0.14563358
48	0xbdd393c3	-0.10330918
49	0xbdbedcd1	-0.09319461
50	0xbdf5f5a4	-0.12009743
51	0x3d554177	0.052064385
52	0xbc428717	-0.011873028
53	0x3d9660bf	0.073426716
54	0xbe0036c4	-0.12520891
55	0x3cd8ca5d	0.026463682
56	0x3c4c3865	0.012464617
57	0x3c287cb8	0.0102836415
58	0xbd081a71	-0.03322834
59	0x3d590c5c	0.052990302
60	0xbe2c132c	-0.16804188
61	0x3d0eaa0b	0.034830134
62	0x3da1a71a	0.078932
63	0x3aff30ea	0.0019469534
64	0xbd2af873	-0.041740846
65	0xbd49a82f	-0.049232658
66	0xbd612101	-0.054963116
67	0x3dd9084c	0.10597286
68	0x3ca9aabc	0.020711295
69	0x3c035f10	0.00801827
70	0xbbf63681	-0.0075138216
71	0x3cb2629a	0.021775533
72	0xbcd519ed	-0.026013339
73	0xbd940f61	-0.07229496
74	0xbda4adb7	-0.08040946
75	0x3ddf6535	0.109079756
76	0x3d2406b3	0.04004545
77	0x3d990f02	0.07473566
78	0x3cbd1a91	0.023083957
79	0x3d46cf7e	0.048537724
80	0xbd832071	-0.06402672
81	0xbd86db0c	-0.065847486
82	0xbda3af46	-0.07992415
83	0x3d382300	0.044955254
84	0xbbc93e57	-0.0061414647
85	0xbd77acc5	-0.0604675
86	0x3dceb019	0.10092182
87	0xbca0012b	-0.019531807
88	0xbd90f445	-0.07077841
89	0xbdd8d81e	-0.10588096
90	0xbd8e24d0	-0.06940615
91	0x3dd4f74e	0.10398732
92	0xbe08c841	-0.13357641
93	0xbd389fa4	-0.04507412
94	0x3d0005f1	0.031255666
95	0xbe0c885c	-0.13723892
96	0xbdce80ee	-0.10083185
97	0x3d95027c	0.072758645
98	0xbd82bf70	-0.0638417
99	0xbe12965b	-0.14315169
100	0xbbe70031	-0.0070495834
101	0xbbd3d0dd	-0.0064641074
102	0x3d003381	0.031299118
103	0x3cb88282	0.022523168
104	0xbdc86e3d	-0.09786651
105	0x3dced303	0.10098841
106	0xbd902131	-0.07037581
107	0x3d2ecd02	0.04267598
108	0x3da1b0b1	0.07895029
109	0xbc55701a	-0.013027215
110	0x3dff26e9	0.124585934
111	0xbd892f61	-0.0669849
112	0x3c45047a	0.012024993
113	0x3da6c582	0.081431404
114	0x3dc13bff	0.094352715
115	0xbdc38474	-0.09546748
116	0x3dcb100f	0.09915172
117	0x3e49838f	0.19679092
118	0xbde388c9	-0.11110074
119	0x3ce197dc	0.027538233
120	0xbda1bed3	-0.07897725
121	0x3df28055	0.11840884
122	0xbdda6fe6	-0.10665874
123	0x3da205bc	0.0791125
124	0x3db53fbf	0.08850049
125	0x3d9e3f62	0.07726933
126	0xbbe1c5c6	-0.0068900315
127	0x3d0f1a0a	0.034936942
128	0xbb2b047e	-0.0026095207
129	0xbdd55e42	-0.10418369
130	0xbd17f578	-0.03709933
131	0xbd11c93c	-0.035592303
132	0xbe3933f4	-0.18086225
133	0x3df253cc	0.11832389
134	0xbd9caf8c	-0.076506704
135	0xbd4ae6b8	-0.049536437
136	0xba39ca3b	-0.00070873246
137	0xbdcdeea8	-0.10055286
138	0xbc799406	-0.015233045
139	0xbd88dbeb	-0.06682571
140	0xbd755bb3	-0.059901904
141	0xbd8f47ba	-0.06996103
142	0x3e474270	0.19458938
143	0x3d7e698c	0.062112376
144	0x3db75763	0.089522146
145	0x3d19afd4	0.0375212
146	0xbd4aaa9d	-0.049479116
147	0x3dbfd64f	0.09367048
148	0xbd6fd8ad	-0.058556248
149	0xbdd42ce5	-0.103601255
150	0x3ca9cdc0	0.020727992
151	0x3d42758c	0.047475383
152	0xbcdb54ee	-0.026773896
153	0x3d5f23b9	0.054477427
154	0xbd1d9af2	-0.038477845
155	0x3b1b0ddb	0.0023659382
156	0x3d2b3265	0.041796107
157	0x3b05a412	0.0020391983
158	0xbdec9a22	-0.11552836
159	0x3d5591a8	0.05214086
160	0xbd02e63a	-0.031957842
161	0x3de062fd	0.109563805
162	0x3d005fdf	0.03134143
163	0xbce33d5a	-0.027739216
164	0xbdcf7d3f	-0.10131311
165	0xbd9fdb64	-0.07805517
166	0x3d6483f7	0.055789914
167	0xbd67366c	-0.056448385
168	0xbd8f2e14	-0.069912106
169	0x3d07114a	0.032975473
170	0xbde30e8f	-0.11086761
171	0xbd880858	-0.066422164
172	0xbd10878d	-0.03528552
173	0xbd518755	-0.051154453
174	0xbd04c673	-0.03241582
175	0x3d62aa84	0.055338398
176	0x3ccd7adb	0.025082996
177	0x3d769a9e	0.06020605
178	0xbe179296	-0.14802012
179	0x3d9ee5c4	0.07758668
180	0xbe035190	-0.12824082
181	0xbe35c291	-0.17750002
182	0xbd83adb0	-0.06429613
183	0xbe0ac485	-0.13551529
184	0x3db73af5	0.08946792
185	0xbe0a9b7a	-0.13535872
186	0xbe0ad275	-0.13556845
187	0x3dc33f61	0.09533573
188	0xbdc52b6c	-0.09627423
189	0x3d5dc560	0.05414331
190	0x3e069a9a	0.13144913
191	0x3db2d484	0.087319404
192	0x3e049330	0.12946773
193	0x3dfae726	0.12251119
194	0x3db9bb3f	0.090689175
195	0x3ce48247	0.027894152
196	0x3d396587	0.04526284
197	0xbc3ac0e2	-0.011398526
198	0xbd3a2502	-0.04544545
199	0x3d81097b	0.063006364
200	0x39a48639	0.0003138052
201	0x3c71095d	0.014711705
202	0xbdd15685	-0.102215804
203	0xbd7c1549	-0.061543737
204	0x3c10181d	0.008794812
205	0x3d25e848	0.040504724
206	0xbbbb448c	-0.0057149585
207	0xbe0f3ff6	-0.13989243
208	0xbcee4b86	-0.029088747
209	0x3c963ed8	0.018340513
210	0xbd1063d1	-0.035251442
211	0x3d77d3c9	0.06050471
212	0xbd126b38	-0.035746783
213	0x3d9dd891	0.077073224
214	0xbd729a80	-0.059229374
215	0x3d47bdaa	0.048764862
216	0xbd0897ef	-0.03334802
217	0x3be93ba2	0.0071177045
218	0xbdcdda2e	-0.1005138
219	0xbd8aa86d	-0.06770406
220	0xbdd47bf5	-0.103752054
221	0x3d33dd7c	0.043912396
222	0xbc287d81	-0.010283829
223	0xbc8c4e47	-0.01712717
224	0xbd0c6922	-0.03427995
225	0x3de906e6	0.11378269
226	0x3e0f2812	0.1398013
227	0xbc11032f	-0.008850857
228	0x3da1720e	0.07883082
229	0x3c92066f	0.017825333
230	0xbcc8a2a5	-0.024491617
231	0x3cc17ce7	0.023619128
232	0x3d9b6e46	0.07589392
233	0xbcf8413f	-0.03030455
234	0xbd1ebed3	-0.038756203
235	0x3d0d3eb9	0.034483645
236	0x3d85a426	0.065254495
237	0xbbda485f	-0.0066614593
238	0x3e003bfe	0.12522885
239	0x3bbc698f	0.0057498883
240	0xbd9c4a97	-0.076314144
241	0xbdeb8d2e	-0.11501537
242	0x3d9055bf	0.07047605
243	0x3df29e50	0.11846602
244	0xbcc60636	-0.024172883
245	0x3dcbc195	0.09949032
246	0xbc7d7248	-0.015469141
247	0x3c1ff9fe	0.009764193
248	0xbdc29508	-0.09501082
249	0x3d5c1460	0.05373037
250	0x3cbe11c8	0.023201838
251	0x3d4841b2	0.048890777
252	0x3df72988	0.12068468
253	0xbd31b420	-0.04338467
254	0xbdec826c	-0.115483135
255	0x3dac4bda	0.08412905

bias f4 [64]
0	0xbdb35848	-0.08757073
1	0x3d2fe4d6	0.042942844
2	0x3dd40afb	0.10353657
3	0x3db63697	0.08897131
4	0x3cec4842	0.028843049
5	0x3d587688	0.052847415
6	0x3b522c7f	0.0032069979
7	0x3d9507b0	0.07276857
8	0x3aa0a0fe	0.0012255011
9	0xbd7c5135	-0.061600883
10	0x3de83590	0.11338341
11	0xbdc9cd29	-0.09853584
12	0x3dd1c6fa	0.1024303
13	0x3c8d4222	0.017243449
14	0x3d90f0c1	0.0707717
15	0x3c7fbc92	0.0156089235
16	0x3d32b1cb	0.043626588
17	0x3db33351	0.08750022
18	0xbe019ddb	-0.12657873
19	0x3db5a71d	0.08869765
20	0xbce3e6c4	-0.027819999
21	0xbe06eee7	-0.13177072
22	0xbdb0b12f	-0.08627545
23	0x38df45d7	0.00010646477
24	0x3de0bf37	0.10973971
25	0xbdf4bcac	-0.11950049
26	0x3cc23ecf	0.02371159
27	0x3d0339d0	0.032037556
28	0xbe16bbe5	-0.14720114
29	0x3cb69f67	0.022292806
30	0xbd5607f9	-0.052253697
31	0x3cbb481f	0.022861538
32	0xbc628671	-0.013825999
33	0x3dc0afe7	0.09408551
34	0xbde21b92	-0.11040415
35	0x3de82e0e	0.11336909
36	0xbd2d53a8	-0.04231611
37	0x3cec7ffb	0.02886962
38	0x3c8ee222	0.017441813
39	0xbde15f13	-0.11004462
40	0xbd052942	-0.03251005
41	0x3c635a31	0.013876484
42	0xbb27a9a7	-0.0025583298
43	0xbd76d6ce	-0.060263447
44	0x3d7f7266	0.06236496
45	0xbdf64a03	-0.12025835
46	0xbd224d7d	-0.03962468
47	0x3d6e9bfc	0.058254227
48	0x3c5e5cbf	0.013571917
49	0x3ce91eff	0.028457163
50	0x3dedc347	0.11609512
51	0xbcfb69dc	-0.030690126
52	0x3d0c69ec	0.034280702
53	0x3dc2387e	0.09483431
54	0xba400c2d	-0.0007326033
55	0x3dc440be	0.09582661
56	0x3d20ac7d	0.039226998
57	0x3db7a477	0.08966916
58	0x3dbf5a69	0.09343416
59	0x3d6cfa10	0.057855666
60	0x3cd6a7ff	0.026203154
61	0x3d7f21e9	0.0622882
62	0x3d914a38	0.07094234
63	0xbc36bd06	-0.011153465

weight f4 [1, 64]
0	0x3c963ae0	0.01833862
1	0xbc9f2646	-0.01942743
2	0x3ca02a16	0.019551318
3	0xbc2417b9	-0.010015422
4	0xbd22ab98	-0.039714426
5	0xbcf91314	-0.030404605
6	0xbc76a5e8	-0.015054204
7	0xbc0bb23d	-0.008526382
8	0xbc8f63c7	-0.017503632
9	0xbd1dc251	-0.038515393
10	0xbc1d75a5	-0.009610568
11	0x3c9b332d	0.018945301
12	0x3cf9ccb7	0.030493123
13	0xbc57c6d3	-0.013169962
14	0xbd0682f2	-0.032839723
15	0xbbc38c47	-0.00596765
16	0xbc15c200	-0.0091404915
17	0xbbaeb4a1	-0.0053315912
18	0xbc4ae1ff	-0.012382983
19	0xbbfc2609	-0.007694964
20	0xbaac2ba5	-0.0013135566
21	0x3d15d05f	0.03657567
22	0xbb1a544d	-0.0023548782
23	0x3b9b5fac	0.0047416296
24	0xbc71483d	-0.014726696
25	0x3cbce5e8	0.023058847
26	0xbaa8a627	-0.00128669
27	0xbc116cf7	-0.008876077
28	0x3d2e572f	0.042563614
29	0x3c03644f	0.008019521
30	0x3bff74eb	0.00779592
31	0x3dae7ad0	0.085195184
32	0x39005d28	0.00012241735
33	0x3c39840e	0.011322988
34	0x3c5aa7ea	0.013345698
35	0xbd81e4a8	-0.06342441
36	0x3c92c176	0.017914515
37	0xbbccff10	-0.0062559918
38	0xbc0b91a3	-0.008518609
39	0x3c470943	0.012148204
40	0x3bd3ca8e	0.0064633554
41	0xbde13474	-0.10996333
42	0xbc859a56	-0.016308945
43	0xbbd0cf79	-0.006372389
44	0x3c912fa9	0.017722921
45	0x3d5c54f8	0.05379197
46	0xbcbb166a	-0.022837836
47	0xbc0b3bc7	-0.008498139
48	0xbcad06ee	-0.021121468
49	0xbb9ede7e	-0.0048483005
50	0xbcd278c5	-0.025692353
51	0xba87387d	-0.0010316517
52	0x3c3179ba	0.0108322445
53	0xbcd0e79b	-0.025501063
54	0xbc48449c	-0.012223389
55	0xbd654383	-0.055972587
56	0xbbb35537	-0.005472805
57	0x3c1fc5b8	0.00975173
58	0xbc6b9b94	-0.014380354
59	0x3d24dc29	0.040249024
60	0x3c687577	0.014188162
61	0x3cdcdf5d	0.026961977
62	0x3d4e1697	0.050314512
63	0x3c80d5c1	0.015726926
