logs/ppo-kuka-reach/ppo-kuka-reach_s0/pyt_save/model.pt (torch_old, 40811 bytes, 12 tensors)

log_std f4 [3]
-0.87684524 -0.64202213 -0.67037183
00000000: ee78 60bf 905b 24bf 7d9d 2bbf

weight f4 [64, 3]
0.027108118 0.3983937 -0.501843 -0.3983331 -0.22510242 0.14826106 0.00017285206 0.5912498
-0.04954065 0.17606933 -0.13507012 -0.1266201 -0.54517514 -0.37495387 -0.2310948 0.020516481
0.28132024 0.3599824 -0.3660137 -0.18951727 0.2145394 0.46531546 -0.08040242 0.45535222
-0.079207316 0.10312214 0.5288537 -0.5691459 -0.3518977 -0.13337044 -0.16165648 0.4441524
-0.43985915 -0.25059468 -0.3538315 -0.53297126 -0.3143161 0.4045419 0.23244219 0.2809889
0.032665703 -0.28477132 0.09315969 -0.5153648 -0.41876307 -0.3165671 0.42609623 0.36416146
-0.28481096 -0.008340818 0.37350646 0.5488353 0.26565924 0.09638276 0.38170993 -0.40956312
0.10392727 -0.44415787 -0.39691994 -0.29623902 0.25802228 0.30113682 -0.3258593 0.18654612
0.3597107 -0.11673802 0.008842155 0.15634838 0.3260063 0.5564561 -0.49928138 -0.19629784
0.2541753 0.55667216 0.50136364 0.5401591 0.109285854 -0.5051897 0.025909541 -0.4285729
-0.5389086 0.52076966 0.49307972 -0.57741976 0.11289883 -0.17843579 -0.10031089 -0.2892519
0.20875777 -0.34106815 0.20757255 0.29604512 0.42347586 0.21115255 -0.6547372 -0.37456453
0.29482988 0.21328396 -0.4427429 -0.35765535 0.57982486 0.38887537 -0.20125008 -0.09160767
-0.56983143 0.02303868 -0.4443897 -0.4498348 -0.0073125022 0.09796247 -0.24580778 0.34432176
-0.42016444 0.53476197 0.385486 -0.44172677 -0.13339026 -0.00630693 0.16508235 0.16348226
0.17821833 0.044803277 -0.2640258 0.23407803 -0.55956405 -0.3291567 -0.17071773 -0.20823272
-0.17574373 -0.4524542 -0.18709362 0.10755472 -0.40873393 0.024642678 0.4266362 -0.03797085
0.07319523 -0.06632783 0.14564374 0.34232616 0.5218092 0.3383018 0.61523396 -0.02378245
-0.52980506 -0.23407854 0.40547252 -0.0058989637 -0.34090385 -0.44099712 -0.550645 -0.44026947
-0.10047208 0.31953195 0.21455386 -0.5750557 0.34601068 -0.34616813 -0.09970646 -0.23429419
-0.17597897 -0.13114655 -0.5474732 -0.42183864 -0.060111593 0.0062369923 -0.28429013 0.20464155
-0.49487537 0.010977481 0.50880367 -0.21605247 0.611358 0.17438844 -0.504802 0.36887628
-0.08107009 -0.26555458 0.46585703 -0.47977504 0.01773069 -0.056310106 0.44283348 0.19156191
0.18875104 0.16728294 -0.113726854 -0.081300505 -0.4709367 0.33575425 0.5217515 0.39019337
00000000: d811 de3c 42fa cb3e c878 00bf 51f2 cbbe
00000010: 4081 66be bfd1 173e 9f3f 3539 265c 173f
00000020: 23eb 4abd 854b 343e d24f 0abe b3a8 01be
00000030: 9990 0bbf f4f9 bfbe 1ea4 6cbe 2e12 a83c
00000040: 3509 903e 9d4f b83e 2666 bbbe d110 42be
00000050: 37b0 5b3e d43d ee3e 06aa a4bd ed23 e93e
00000060: 7237 a2bd b331 d33d f562 073f 8cb3 11bf
00000070: ef2b b4be 4392 08be 4789 25be f267 e33e
00000080: 3835 e1be f24d 80be 6729 b5be ce70 08bf
00000090: 0aee a0be 1e20 cf3e 5305 6e3e c7dd 8f3e
000000a0: 79cc 053d 8ccd 91be 82ca be3d f3ee 03bf
000000b0: 1d68 d6be 1515 a2be 4929 da3e 5f73 ba3e
000000c0: bed2 91be eda7 08bc 3d3c bf3e 7880 0c3f
000000d0: 7d04 883e 5364 c53d 7c6f c33e 42b2 d1be
000000e0: d2d7 d43d a968 e3be 1739 cbbe a4ac 97be
000000f0: 7f1b 843e 9b2e 9a3e 08d7 a6be f205 3f3e
00000100: 002c b83e 5814 efbd b0de 103c ca19 203e
00000110: 4cea a63e e873 0e3f cfa1 ffbe 4d02 49be
00000120: 4423 823e 1182 0e3f 5e59 003f de47 0a3f
00000130: 43d1 df3d 1d54 01bf 3f40 d43c e86d dbbe
00000140: eaf5 09bf 2951 053f f274 fc3e c8d1 13bf
00000150: 8037 e73d dfb7 36be cc6f cdbd d318 94be
00000160: 99c4 553e 7ca0 aebe e68d 543e 3a93 973e
00000170: d4d1 d83e 6038 583e db9c 27bf ecc6 bfbe
00000180: f1f3 963e 1c67 5a3e 33af e2be 9a1e b7be
00000190: 676f 143f ac1a c73e 8014 4ebe cd9c bbbd
000001a0: 79e0 11bf 9dbb bc3c 0c87 e3be bf50 e6be
000001b0: b79d efbb 8ca0 c83d 09b5 7bbe f14a b03e
000001c0: cb1f d7be 29e6 083f 6c5e c53e 032a e2be
000001d0: 7597 08be 5daa cebb 590b 293e e567 273e
000001e0: de7e 363e a483 373d 642e 87be 27b2 6f3e
000001f0: 973f 0fbf 3a87 a8be a1d0 2ebe f53a 55be
00000200: 2af6 33be 14a8 e7be 7895 3fbe a645 dc3d
00000210: 9345 d1be 71df c93c 0f70 da3e 5287 1bbd
00000220: 61e7 953d e3d6 87bd a223 153e 6045 af3e
00000230: 4a95 053f e535 ad3e f97f 1d3f 6ad3 c2bc
00000240: 4ea1 07bf 49b2 6fbe 189a cf3e 184c c1bb
00000250: f38a aebe 60ca e1be 12f7 0cbf 006b e1be
00000260: 4ec4 cdbd b199 a33e 02b4 5b3e da36 13bf
00000270: 5028 b13e f33c b1be e732 ccbd d1ea 6fbe
00000280: d533 34be 484b 06be 3427 0cbf 3cfb d7be
00000290: 9337 76bd af5f cc3b 7a8e 91be 8e8d 513e
000002a0: 4e60 fdbe e4da 333c f540 023f dc3c 5dbe
000002b0: f581 1c3f e292 323e b43a 01bf 5add bc3e
000002c0: 1308 a6bd c5f6 87be d084 ee3e 13a5 f5be
000002d0: f43f 913c 6da5 66bd 12bb e23e ce28 443e
000002e0: f447 413e 384c 2b3e a0e9 e8bd e180 a6bd
000002f0: 9d1e f1be fbe7 ab3e 8291 053f 6dc7 c73e

bias f4 [64]
-0.36753523 0.03765034 -0.39551798 -0.30312255 -0.34206557 0.18451315 -0.32891366 -0.01991817
0.024626018 0.35813692 -0.3964782 -0.3927558 -0.3119755 0.39563227 -0.18886922 0.47337008
0.21132374 0.059949074 -0.028194474 -0.10788178 0.06989709 -0.12056677 -0.0037924969 0.0572265
-0.4398809 -0.2921219 0.43976066 -0.47301257 -0.04776577 0.5718705 0.18046507 0.0004885029
-0.48215783 0.27836597 -0.37097955 -0.15903851 -0.19387698 -0.10277907 -0.009621608 0.4659991
0.048219062 0.5043749 0.33272395 -0.36961523 0.25171822 -0.37012395 -0.24230306 0.1552178
0.202744 0.41069028 -0.17822078 -0.0067505003 0.29276994 -0.54496574 0.40895632 -0.45387453
0.032393515 -0.070785835 -0.31158134 0.08490559 0.45967 -0.16283348 -0.34156638 -0.20872411
00000000: 942d bcbe 3e37 1a3d 5581 cabe e132 9bbe
00000010: 3823 afbe 04f1 3c3e 5f67 a8be 6e2b a3bc
00000020: 81bc c93c b95d b73e 31ff cabe 4a17 c9be
00000030: 41bb 9fbe 5090 ca3e ef66 41be 905d f23e
00000040: 4065 583e 298d 753d 19f8 e6bc 1ff1 dcbd
00000050: 3526 8f3d b6eb f6bd 8a8b 78bb 5666 6a3d
00000060: 1238 e1be 0091 95be 4f28 e13e b42e f2be
00000070: 0aa6 43bd 1b66 123f d6cb 383e e00e 003a
00000080: 64dd f6be fc85 8e3e 08f1 bdbe feda 22be
00000090: b087 46be d57d d2bd f3a3 1dbc 6f97 ee3e
000000a0: 5a81 453d b71e 013f cb5a aa3e 353e bdbe
000000b0: 36e1 803e e380 bdbe 4b1e 78be 6af1 1e3e
000000c0: 209c 4f3e ff45 d23e 827f 36be 4d33 ddbb
000000d0: f1e5 953e e082 0bbf b962 d13e 3e62 e8be
000000e0: 10af 043d 2af8 90bd 9787 9fbe fbe2 ad3d
000000f0: de59 eb3e d2bd 26be cae1 aebe c6bb 55be

weight f4 [64, 64]
-0.12679735 0.033134937 -0.06366662 -0.082062446 -0.08443077 0.07575958 0.056468397 0.11431834
0.01614568 -0.059651546 -0.039440773 0.028350333 0.0967789 0.04037617 -0.059907496 -0.06162757
-0.13210541 0.044524457 -0.052728068 -0.12756683 0.12251314 -0.06319123 -0.0066146622 0.04769784
0.0031248466 -0.053516846 -0.09708196 0.10641688 0.040642265 0.10400972 -0.03239647 0.044431698
-0.02834164 -0.015323005 -0.08290758 0.03647139 0.035886053 0.0203448 -0.01410072 -0.07356081
0.09904884 -0.08821921 0.050837334 -0.05149376 -0.08305551 0.018435042 -0.062235586 0.04309397
-0.020461297 -0.089708894 0.0047177467 0.07349656 0.056054536 -0.02141084 -0.114527345 -0.02258042
0.022974946 -0.054468814 0.039444067 0.0750862 -0.061513875 0.012185424 0.045427006 0.028351381
0.013265953 -0.0004587881 -0.09938908 0.028904153 0.08472214 0.09848793 0.07368768 0.03789175
-0.0011815059 -0.08797169 -0.105180636 -0.10319833 0.119902685 0.07801299 -0.04796929 0.024692131
0.057601053 0.1356675 0.14317805 0.09312123 -0.027844822 -0.059873935 0.0481601 0.088354945
-0.0726855 0.17760462 0.059149995 0.08249304 0.027885277 0.020709477 -0.04832571 0.15693055
-0.010464745 -0.012902599 0.025112363 0.07813572 -0.039075144 0.14450409 -0.05197664 0.021031514
-0.07667389 -0.12215332 -0.10684951 0.09741879 0.0138664935 0.122354 0.10035781 -0.114125386
-0.14029029 -0.02327589 -0.084873326 0.09315286 -0.089025445 -0.057144776 -0.13494945 -0.061103404
0.084299274 0.07517256 0.084468484 0.0033413582 0.10658763 -0.02681122 0.059381865 0.098658554
0.028925814 0.14017618 0.050255448 0.06738826 -0.044774756 0.063464284 0.012144813 -0.03790136
-0.05938052 -0.022604004 -0.10606573 0.08091929 0.08008205 -0.009814061 -0.07535749 0.10847016
0.108041994 0.0026198707 -0.058077697 0.120685674 0.044107676 -0.14854196 0.08595619 0.09882598
-0.06543926 0.013678986 -0.059415955 -0.050319772 0.09012637 0.015968543 -0.0880589 -0.02552028
-0.04980959 -0.009504465 0.0075362218 0.11536883 -0.0012538818 -0.08479956 0.010471644 0.06699683
0.059352852 -0.10380905 -0.0063234544 -0.095475756 -0.013473964 0.037386917 -0.107943006 0.042618766
0.16839294 0.019827938 -0.080312066 -0.058575533 0.034814976 -0.10087618 0.100632764 -0.12040991
-0.1109845 -0.13442937 -0.031134382 0.08232586 -0.11014685 0.07330591 -0.054909468 -0.020048859
-0.005276395 -0.08896777 0.09133389 0.055324897 0.12753938 0.066545114 -0.08146027 0.088235185
0.033929385 0.11423461 -0.107730664 -0.03638684 -0.12825096 -0.04640577 0.020913007 -0.08396141
0.07483226 0.054031763 0.009279551 -0.07249178 -0.10782684 -0.09569799 0.029569505 0.12062326
0.05312525 -0.0882329 0.053480335 -0.15583201 -0.14516005 0.069802545 -0.07313446 0.0683318
-0.10458732 -0.03916662 -0.10527573 0.064716846 -0.019403419 0.07363502 0.07307128 0.075458206
-0.0033019015 -0.030813925 -0.01130351 0.01736941 0.11362364 -0.09405096 0.08573817 -0.021810966
-0.019664656 -0.057435744 0.11914749 0.09395344 -0.1116908 0.08429277 0.10533132 0.067576736
0.12329612 -0.07420336 0.037522063 0.0639971 -0.029968185 0.008284183 -0.03903952 0.016214944
00000000: 2ad7 01be 80b8 073d a563 82bd 5b10 a8bd
00000010: 0aea acbd d727 9b3d 684b 673d bc1f ea3d
00000020: f243 843c 2e55 74bd a68c 21bd f53e e83c
00000030: 0434 c63d 7c61 253d 9061 75bd 316d 7cbd
00000040: a446 07be 475f 363d 63f9 57bd e1a0 02be
00000050: 2be8 fa3d 676a 81bd cfbf d8bb cf5e 433d
00000060: 3aca 4c3b 7b34 5bbd e8d2 c6bd 18f1 d93d
00000070: 8178 263d 0c03 d53d 29b2 04bd 03fe 353d
00000080: ba2c e8bc 570d 7bbc 73cb a9bd 0663 153d
00000090: 41fd 123d 23aa a63c b506 67bc 0da7 96bd
000000a0: 1eda ca3d 46ac b4bd cf3a 503d 1feb 52bd
000000b0: 0219 aabd 1605 973c beea 7ebd 4d83 303d
000000c0: 739e a7bc 4cb9 b7bd 5497 9a3b 5d85 963d
000000d0: 7199 653d c965 afbc 508d eabd 93fa b8bc
000000e0: f435 bc3c b11a 5fbd 1a90 213d cbc6 993d
000000f0: f9f5 7bbd 5fa5 473c ab11 3a3d 2841 e83c
00000100: 7159 593c 7f89 f0b9 818c cbbd 67c8 ec3c
00000110: cd82 ad3d 0ab4 c93d 91e9 963d 6134 1b3d
00000120: c2dc 9aba 802a b4bd f268 d7bd a559 d3bd
00000130: 8a8f f53d 46c5 9f3d 727b 44bd 2747 ca3c
00000140: 15ef 6b3d 6cec 0a3e 449d 123e 58b6 be3d
00000150: d31a e4bc 5f3e 75bd 8643 453d 70f3 b43d
00000160: 23dc 94bd fcdd 353e 4447 723d 1cf2 a83d
00000170: aa6f e43c eca6 a93c 2ef1 45bd 67b2 203e
00000180: 5274 2bbc 6c65 53bc 71b8 cd3c 9f05 a03d
00000190: 420d 20bd e1f8 133e 75e5 54bd 484a ac3c
000001a0: 3307 9dbd 852b fabd ead3 dabd 8183 c73d
000001b0: 4a30 633c bc94 fa3d 6588 cd3d 92ba e9bd
000001c0: 42a8 0fbe 14ad bebc 11d2 adbd edc6 be3d
000001d0: f952 b6bd a410 6abd 3030 0abe 9047 7abd
000001e0: 19a5 ac3d 12f4 993d d0fd ac3d b0fa 5a3b
000001f0: 9e4a da3d 34a3 dbbc 663a 733d 7f0d ca3d
00000200: d4f5 ec3c 588a 0f3e a8d8 4d3d db02 8a3d
00000210: bc65 37bd 90f9 813d 0afb 463c 753e 1bbd
00000220: fd38 73bd 082c b9bc fd38 d9bd 03b9 a53d
00000230: 0f02 a43d 28cb 20bc 0755 9abd 9a25 de3d
00000240: 1f45 dd3d 23b2 2b3b e1e2 6dbd 0d2a f73d
00000250: 40aa 343d 621b 18be cd09 b03d 4765 ca3d
00000260: 0505 86bd d31d 603c 255e 73bd 1b1c 4ebd
00000270: 2d94 b83d 76d0 823c 3958 b4bd e80f d1bc
00000280: 2405 4cbd 9eb8 1bbc 69f2 f63b 7e46 ec3d
00000290: 4b59 a4ba 64ab adbd 4291 2b3c a235 893d
000002a0: fa1b 733d d799 d4bd fb34 cfbb cb88 c3bd
000002b0: e7c1 5cbc 0623 193d 3911 ddbd 0491 2e3d
000002c0: 336f 2c3e 336e a23c a77a a4bd e6ec 6fbd
000002d0: 269a 0e3d 2c98 cebd 8d18 ce3d 7999 f6bd
000002e0: d74b e3bd daa7 09be 880d ffbc 769a a83d
000002f0: ac94 e1bd 6921 963d c0e8 60bd 813d a4bc
00000300: 9ce5 acbb bc34 b6bd 430d bb3d 5c9c 623d
00000310: af99 023e ce48 883d a4d4 a6bd a6b4 b43d
00000320: 8af9 0a3d d6f3 e93d e5a1 dcbd 5e0a 15bd
00000330: 3854 03be fa13 3ebd c151 ab3c f6f3 abbd
00000340: a841 993d 6950 5d3d 4209 183c 9276 94bd
00000350: 51d4 dcbd 4ffd c3bd bf3b f23c 5409 f73d
00000360: dd99 593d 73b3 b4bd 320e 5b3d 6d92 1fbe
00000370: d6a4 14be a3f4 8e3d 85c7 95bd 8bf1 8b3d
00000380: e031 d6bd 2d6d 20bd cd9a d7bd 448a 843d
00000390: ebf3 9ebc f5cd 963d 65a6 953d d589 9a3d
000003a0: b764 58bb 7c6d fcbc 5b32 39bc 4b4a 8e3c
000003b0: 83b3 e83d ca9d c0bd 7e97 af3d e9ac b2bc
000003c0: c617 a1bc be41 6bbd 9903 f43d a96a c03d
000003d0: 25be e4bd b0a1 ac3d f2b7 d73d ac65 8a3d
000003e0: ad82 fc3d eef7 97bd bcb0 193d e910 833d
000003f0: d77f f5bc 62ba 073c e7e7 1fbd 34d5 843c

bias f4 [64]
-0.05973172 0.015485473 0.12304444 0.027744966 -0.05623684 0.008232228 -0.1252553 -0.07471406
-0.02481124 -0.07188419 0.107399166 0.030385738 0.1070339 -0.024758575 -0.022954257 0.03222245
-0.034447122 -0.04853136 -0.1326097 0.09916663 0.123940736 -0.116246305 -0.0459126 -0.10027111
-0.049986422 0.10025894 0.06561282 -0.011450984 0.04199356 0.045194436 0.068441175 -0.10181913
0.044712428 -0.108361244 -0.091951445 -0.042463835 -0.02428211 -0.1118932 0.013231474 0.023792347
-0.04742364 0.038145345 0.11239649 -0.028552363 -0.056238297 -0.11750227 -0.10349703 -0.069495104
-0.08821966 -0.056880932 0.062380683 0.040786743 0.11107611 0.11931382 -0.03733451 -0.03426196
0.0026655425 -0.090786174 0.06715734 -0.01644645 -0.11550188 -0.10816616 -0.07677479 0.025098762
00000000: 3fa9 74bd c8b6 7d3c b9fe fb3d 6949 e33c
00000010: 9a58 66bd 78e0 063c ed42 00be af03 99bd
00000020: f140 cbbc 0538 93bd 18f4 db3d 83eb f83c
00000030: 9734 db3d 7fd2 cabc 910a bcbc b0fb 033d
00000040: 6d18 0dbd d2c8 46bd d6ca 07be e017 cb3d
00000050: a4d4 fd3d 8b12 eebd da0e 3cbd f15a cdbd
00000060: 90be 4cbd 8f54 cd3d 0460 863d e89c 3bbc
00000070: 7001 2c3d cd1d 393d e32a 8c3d 8c86 d0bd
00000080: 6124 373d 80ec ddbd 0a51 bcbd 8fee 2dbd
00000090: 47eb c6bc 4328 e5bd d3c8 583c 2be8 c23c
000000a0: 4a3f 42bd 4b3e 1c3d 2230 e63d a5e6 e9bc
000000b0: 215a 66bd 08a5 f0bd 40f6 d3bd 7353 8ebd
000000c0: 82ac b4bd fbfb 68bd e382 7f3d 0010 273d
000000d0: df7b e33d ce5a f43d 12ec 18bd 4556 0cbd
000000e0: 62b0 2e3b 1aee b9bd ca89 893d b5ba 86bc
000000f0: 408c ecbd 3886 ddbd 1a3c 9dbd eb9b cd3c

weight f4 [3, 64]
0.11559158 0.10196739 -0.043711506 -0.062857464 -0.04869425 -0.062343184 -0.022713318 -0.1164298
0.08385411 -0.15442172 -0.07270239 -0.011433572 -0.10468892 0.03083292 0.039432254 0.12763177
0.1098335 -0.040900983 0.07725075 -0.013696729 -0.08142265 0.0053791543 0.04437353 0.10387169
0.045593783 0.057010964 0.034813054 -0.022096913 0.044006746 0.0151345 -0.1793565 0.026134063
-0.06147652 -0.052333392 0.04926651 0.0420941 0.100212105 0.019671235 0.037490565 0.12806901
0.011322743 0.03516979 -0.078946166 0.09497598 0.020632163 0.050738055 0.047570523 -0.05035619
0.015946027 0.1368421 0.091481015 -0.07233684 0.08058093 0.112244055 0.006108334 -0.08943489
0.06635262 -0.021782568 0.07297572 -0.11953616 0.048038792 0.015439792 0.012404066 0.10459234
0.053012434 -0.05784457 -0.06931067 -0.06886998 0.01825391 0.04708565 -0.018867027 -0.04418068
0.05227307 -0.10730057 0.07902943 0.01795757 0.08035612 0.09160253 -0.030131722 0.03295496
-0.06073466 0.05954534 0.07290169 -0.030328823 0.053609706 0.010807244 0.07592081 0.053097326
0.09520607 -0.102194294 0.12727746 0.053867653 0.05804745 0.025508232 0.052644342 0.10590843
-0.016304746 -0.09511234 0.10311238 -0.0095636975 -0.018446872 0.058611467 0.080719195 0.033726845
-0.005012355 -0.010597446 0.137687 0.09004537 0.054863684 0.09495764 -0.0984495 0.018698473
-0.10638241 0.07160524 -0.12342955 -0.10494705 -0.12413373 0.09237788 0.002225462 -5.306058e-05
0.019512711 -0.015459519 -0.028599542 -0.07962999 -0.030554619 -0.07627362 -0.0031393815 0.05007225
-0.043087777 0.06801463 -0.1020296 -0.048042104 0.031389106 0.035036817 0.108605586 -0.016001245
-0.029271193 -0.074705824 -0.0035061308 -0.10818851 -0.108463064 -0.038774207 -0.012670617 -0.06317286
-0.023774734 0.059318174 0.12625834 -0.046763394 -0.124470554 0.004450776 0.056852072 0.0596132
-0.022440318 -0.09587421 -0.030552194 -0.03842374 0.054787442 -0.0733411 0.024190275 0.02747194
-0.033781942 -0.091694996 0.10740621 0.0028604325 0.09543132 -0.015530091 -0.09681372 -0.066349514
-0.0030016922 -0.031084422 0.011125513 0.1202779 -0.0739936 0.06035218 0.07094349 -0.019297268
-0.06065699 0.031132918 0.020294158 0.06495179 -0.049209658 -0.050488688 -0.061229784 -0.12521537
0.056340754 -0.08545206 -0.065266825 -0.01496337 0.10807127 0.084152155 -0.083829135 0.117000595
00000000: 47bb ec3d 47d4 d03d d60a 33bd 6abb 80bd
00000010: 9f73 47bd 915b 7fbd 4811 babc bf72 eebd
00000020: b4bb ab3d ba20 1ebe fee4 94bd e053 3bbc
00000030: 2567 d6bd 5295 fc3c b783 213d e7b1 023e
00000040: 63f0 e03d ca87 27bd a435 9e3d 3f68 60bc
00000050: ebc0 a6bd 9e43 b03b 05c1 353d aeba d43d
00000060: 8cc0 3a3d 5484 693d 2298 0e3d 9604 b5bc
00000070: 6b40 343d b2f6 773c 3ba9 37be 1a17 d63c
00000080: cece 7bbd 8a5b 56bd aecb 493d dd6a 2c3d
00000090: 013c cd3d 9225 a13c b58f 193d 8624 033e
000000a0: 0783 393c 330e 103d 87ae a1bd c482 c23d
000000b0: c804 a93c b5d2 4f3d 4fd9 423d 4b42 4ebd
000000c0: 3ea1 823c 5620 0c3e 665a bb3d 5625 94bd
000000d0: 9d07 a53d 36e0 e53d 6b28 c83b a429 b7bd
000000e0: e2e3 873d 5b71 b2bc 4b74 953d 60cf f4bd
000000f0: 53c4 443d 2ef7 7c3c 6c3a 4b3c 8234 d63d
00000100: 9123 593d 6eee 6cbd c1f2 8dbd b40b 8dbd
00000110: 3989 953c e2dc 403d 068f 9abc cdf6 34bd
00000120: 491c 563d 67c0 dbbd 2fda a13d c11b 933c
00000130: c091 a43d 1b9a bb3d cdd6 f6bc c8fb 063d
00000140: e8c4 78bd d0e5 733d 7b4d 953d 2774 f8bc
00000150: da95 5b3d de10 313c 5f7c 9b3d 957c 593d
00000160: 66fb c23d 3e4b d1bd 0655 023e 54a4 5c3d
00000170: 2ac3 6d3d a4f6 d03c 98a1 573d 85e6 d83d
00000180: 8891 85bc 42ca c2bd 952c d33d 0eb1 1cbc
00000190: e51d 97bc 9412 703d 1b50 a53d 2925 0a3d
000001a0: ae3e a4bb e9a0 2dbc d2fd 0c3e b569 b83d
000001b0: beb8 603d 2779 c23d e49f c9bd 8a2d 993c
000001c0: 05df d9bd c5a5 923d a2c8 fcbd 7bee d6bd
000001d0: d339 febd 9d30 bd3d 0fd9 113b 5d8d 5eb8
000001e0: 1fd9 9f3c ec49 7dbc 9649 eabc 0c15 a3bd
000001f0: ae4d fabc 5835 9cbd 15be 4dbb 8f18 4d3d
00000200: cf7c 30bd 414b 8b3d e5f4 d0bd ccc7 44bd
00000210: dd91 003d c482 0f3d 9b6c de3d 0b15 83bc
00000220: 24ca efbc 5eff 98bd 1dc7 65bb f091 ddbd
00000230: e221 debd b4d1 1ebd 6b98 4fbc c660 81bd
00000240: 3bc3 c2bc 9df7 723d de49 013e f98a 3fbd
00000250: 6bea febd d1d7 913b b8dd 683d f92c 743d
00000260: c2d4 b7bc b359 c4bd 9848 fabc 3662 1dbd
00000270: cc68 603d dc33 96bd af2a c63c d50c e13c
00000280: ef5e 0abd 96ca bbbd c9f7 db3d 1876 3b3b
00000290: 7f71 c33d ec71 7ebc 4646 c6bd 41e2 87bd
000002a0: 0ab8 44bb c2a4 febc c947 363c 4254 f63d
000002b0: f589 97bd d933 773d d24a 913d 4e15 9ebc
000002c0: 7773 78bd 760a ff3c ef3f a63c 7205 853d
000002d0: 1190 49bd 3acd 4ebd 15cc 7abd 7538 00be
000002e0: 90c5 663d 7d01 afbd 9daa 85bd ec28 75bc
000002f0: 7854 dd3d f757 ac3d 9cae abbd 029e ef3d

bias f4 [3]
0.10399488 0.10041459 -0.0022667667
00000000: 45fb d43d 2aa6 cd3d 098e 14bb

weight f4 [64, 3]
0.49639335 0.31235746 -0.86368275 -0.34582683 -0.095421724 -0.2687133 -0.44645363 0.46510977
1.2335948 0.6003295 0.016416345 -0.84184045 0.4680268 0.12570281 0.35522777 -0.23884876
0.32199824 -1.5116457 0.46633622 0.66102135 0.40574244 0.4008373 0.5645819 -0.5842655
-0.6466882 0.07376628 0.8015348 0.12703958 0.09494319 0.13938247 0.26345688 0.3673632
-0.4647873 0.22155876 0.13440822 -0.0063060177 -0.41978827 0.4585707 -0.18324262 0.3782848
-0.15425323 0.040817935 -0.7812144 0.028484274 -0.5120727 -0.50559896 -0.24000205 -0.47504655
0.2555973 -0.6125283 1.0348521 -0.54426026 -0.36084154 -0.06838233 -0.1967192 0.4354721
-0.553597 0.019971985 -0.45584494 0.30851045 0.0064248936 0.1445979 -1.7330524 -0.61260164
0.23918016 -0.15034224 -0.09188784 -0.13121313 -0.6111643 0.3746612 -0.5962238 -0.88604146
-0.58790463 -0.4773339 0.18994552 0.081887305 0.67726266 -0.35444754 0.10866769 0.17950244
1.20746 -0.23176515 -0.33959085 0.54970473 -0.5732877 -0.12485688 -0.44258553 -0.32225502
-0.47879714 1.0266961 -0.8458705 0.8531331 1.0067006 -0.66084886 0.5129588 -0.20259781
-0.47950232 -0.46352926 0.2993378 -0.43934238 0.26059988 -0.25011408 -0.2289286 0.285529
-0.43605798 -0.6591113 0.41641957 -1.3002275 -0.13399236 -0.37741736 -0.25198844 0.29406255
-0.29213572 0.93682593 0.48628145 -0.18735561 0.05485434 0.22322397 0.18029341 0.30342028
-0.0048853634 -0.88942325 -1.3819301 -0.036319032 0.6879433 -0.16815619 0.37645417 -0.2567541
0.23237774 -0.11500247 -0.52974796 0.9579383 0.474786 -0.38236713 0.97731715 -0.44226602
-0.040619664 0.25490353 -0.10601339 -0.39138162 0.4242663 0.6003349 -0.30760193 0.18254206
-0.07306092 -0.28256378 0.56886387 0.5028786 -0.060350854 0.98929733 0.68594766 0.5916977
-1.4657179 -0.24566889 -0.60038817 0.63962406 0.57075953 -0.11350686 -0.4727193 0.2860239
-0.40334105 0.691954 0.24735071 0.20262514 1.3097011 0.16701992 0.37152407 0.30226907
0.23564298 0.35246685 -0.5447164 0.5819727 -0.23612596 -0.4009621 0.26171184 0.30439416
0.30231133 0.36193255 0.01877422 1.1520464 0.39695287 -0.3227688 0.6029555 0.24234565
0.04728887 0.47878134 0.05420372 0.4909722 -0.13192709 0.6811215 0.07740203 0.5173768
00000000: 4527 fe3e 51ed 9f3e 501a 5dbf 3710 b1be
00000010: 776c c3bd ca94 89be 9295 e4be de22 ee3e
00000020: 6fe6 9d3f 32af 193f 927b 863c db82 57bf
00000030: 35a1 ef3e 3db8 003e 6ae0 b53e c594 74be
00000040: f4dc a43e 9b7d c1bf 9fc3 ee3e b238 293f
00000050: 79bd cf3e 8c3a cd3e 7088 103f 6c92 15bf
00000060: 5c8d 25bf c712 973d 6231 4d3f aa16 023e
00000070: 9371 c23d 47ba 0e3e d2e3 863e 0817 bc3e
00000080: 9af8 edbe 4de0 623e 4fa2 093e b6a2 cebb
00000090: 7dee d6be c7c9 ea3e f4a3 3bbe 8cae c13e
000000a0: 8ff4 1dbe b530 273d abfd 47bf da57 e93c
000000b0: 3217 03bf ef6e 01bf 19c3 75be 4d39 f3be
000000c0: a6dd 823e a8ce 1cbf 0976 843f a454 0bbf
000000d0: 39c0 b8be 090c 8cbd c270 49be 33f6 de3e
000000e0: 88b8 0dbf 4a9c a33c 8264 e9be 15f5 9d3e
000000f0: ea87 d23b 7911 143e a9d4 ddbf 76d3 1cbf
00000100: a5eb 743e 51f3 19be b12f bcbd bc5c 06be
00000110: 4375 1cbf 98d3 bf3e 1fa2 18bf 9dd3 62bf
00000120: eb80 16bf 1c65 f4be 1481 423e 88b4 a73d
00000130: 1661 2d3f 267a b5be 2a8d de3d 7dcf 373e
00000140: 0d8e 9a3f d853 6dbe dade adbe 73b9 0c3f
00000150: fcc2 12bf f7b4 ffbd 929a e2be 9cfe a4be
00000160: e624 f5be c76a 833f f88a 58bf ee66 5a3f
00000170: 91db 803f 642d 29bf 4551 033f cd75 4fbe
00000180: 5481 f5be b553 edbe ce42 993e 7cf1 e0be
00000190: 596d 853e f40e 80be 426c 6abe db30 923e
000001a0: fe42 dfbe 85bb 28bf f234 d53e db6d a6bf
000001b0: 4b35 09be d93c c1be a104 81be 5e8f 963e
000001c0: d092 95be d3d3 6f3f e2f9 f83e 26da 3fbe
000001d0: f2ae 603d d394 643e d69e 383e e759 9b3e
000001e0: 6615 a0bb 3eb1 63bf 16e3 b0bf 44c3 14bd
000001f0: 0d1d 303f 2331 2cbe 9abe c03e 4675 83be
00000200: 6ef4 6d3e 6a86 ebbd 909d 07bf 723b 753f
00000210: 2717 f33e a0c5 c3be 7531 7a3f b170 e2be
00000220: ce60 26bd b782 823e 8c1d d9bd 2c63 c8be
00000230: 6f39 d93e 8caf 193f 007e 9dbe 4eec 3a3e
00000240: f7a0 95bd 33ac 90be 10a1 113f a7bc 003f
00000250: 7532 77bd 9742 7d3f 449a 2f3f 8079 173f
00000260: a59c bbbf a090 7bbe 0ab3 19bf 67be 233f
00000270: 4c1d 123f 4976 e8bd 4408 f2be ba71 923e
00000280: b882 cebe e623 313f 8149 7d3e f77c 4f3e
00000290: 49a4 a73f 4507 2b3e 6738 be3e 03c3 9a3e
000002a0: 654c 713e 8976 b43e 8972 0bbf 2afc 143f
000002b0: 01cb 71be e84a cdbe 18ff 853e 8dd9 9b3e
000002c0: 8dc8 9a3e 394f b93e 65cc 993c 4276 933f
000002d0: 683d cb3e f441 a5be 4b5b 1a3f 7529 783e
000002e0: f9b1 413d d422 f53e b804 5e3d b560 fb3e
000002f0: e517 07be fb5d 2e3f f584 9e3d ce72 043f

bias f4 [64]
-0.22167595 -0.36252868 -0.14237247 -0.0987794 -0.25893846 0.45017973 -0.35450414 -0.35878295
-0.11656701 0.45692772 -0.24259695 0.43405932 0.26413748 -0.15323207 0.31057104 0.26685047
-0.24654342 -0.07731395 0.5221316 0.2329925 -0.22432731 -0.048994325 0.2488859 0.14074916
0.097492024 -0.2613065 -0.372823 -0.08060511 0.21834742 -0.01366654 -0.42632657 0.009005065
0.50739014 -0.3946067 -0.3413654 0.3010505 0.48004484 -0.51641697 -0.4767692 -0.15736924
0.51473033 -0.2867758 -0.022228247 0.41710463 -0.18667518 -0.038633764 -0.32943544 -0.1274367
0.5160671 0.06975883 0.3453827 -0.025719909 -0.1491691 -0.09514244 0.24659006 -0.103579655
-0.44188097 -0.21892175 0.15362486 0.34354234 -0.119140394 -0.470131 -0.37336308 -0.46243182
00000000: 05ff 62be 5c9d b9be 17ca 11be db4c cabd
00000010: 9593 84be f57d e63e 9181 b5be 66b2 b7be
00000020: afba eebd 6ef2 e93e 566b 78be 063d de3e
00000030: 073d 873e dee8 1cbe 2b03 9f3e a0a0 883e
00000040: e175 7cbe c756 9ebd 6baa 053f 9695 6e3e
00000050: 0fb6 65be 46ae 48bd f2db 7e3e 8c20 103e
00000060: e6a9 c73d f7c9 85be a8e2 bebe 4b14 a5bd
00000070: 7796 5f3e a0e9 5fbc 7a47 dabe fb89 133c
00000080: 52e4 013f e409 cabe 72c7 aebe 4b23 9a3e
00000090: 70c8 f53e e733 04bf 181b f4be 6725 21be
000000a0: 5ec5 033f 47d4 92be 0318 b6bc bd8e d53e
000000b0: c727 3fbe 703e 1ebd c3ab a8be c47e 02be
000000c0: f91c 043f b8dd 8e3d 00d6 b03e 8fb2 d2bc
000000d0: c9bf 18be 0ada c2bd 1b82 7c3e 9221 d4bd
000000e0: 393e e2be 062d 60be d64f 1d3e c8e4 af3e
000000f0: e1ff f3bd 03b5 f0be 7229 bfbe ddc3 ecbe

weight f4 [64, 64]
0.22912258 0.080271445 0.04892909 0.09619223 0.21691543 0.0778672 0.20701039 0.15349193
0.010190803 0.06501119 -0.038306 -0.0749319 -0.0076281033 0.12178978 -0.2889734 -0.27245438
-0.09481842 0.049605638 0.08477558 -0.076070875 -0.006304087 -0.051037353 0.080345355 -0.13353737
-0.18073295 -0.08344751 0.088353686 -0.076874636 -0.10820664 -0.00524968 -0.06882396 -0.061349194
-0.09325078 0.035839997 -0.054695915 -0.075266674 0.0020091108 -0.086278684 -0.063500896 -0.027078766
0.028877247 0.039453443 0.04009741 -0.08383557 -0.017675966 -0.07753024 -0.10605889 -0.07414534
-0.12525018 -0.038799405 -0.103770174 -0.036307175 0.09849284 0.09186141 -0.09239021 0.1960922
0.034954958 0.15046847 -0.00035205742 0.0781001 -0.06641596 0.05630011 0.12827036 0.115997076
-0.12272419 -0.03429943 -0.02802924 0.0805362 -0.0411624 0.011665667 -0.034198146 -0.0049954094
-0.01076626 -0.07449082 -0.07415533 0.09959832 0.09157683 0.0016873657 0.12439318 0.09633487
-0.06487115 -0.049464595 -0.09187148 0.038214505 0.012811453 -0.027597869 0.0899472 -0.039204095
-0.069731705 -0.08363739 -0.056961864 0.1146363 -0.05234646 -0.03611237 0.046423703 -0.1090391
-0.08570548 0.09372992 -0.046686836 -0.07426598 -0.023365036 -0.008960516 0.032992225 0.05342572
-0.10027857 0.11682432 -0.10708766 0.035878018 -0.024851322 -0.057474077 0.12376962 -0.10101458
0.0032368705 0.08233376 0.103285775 -0.090486616 0.038721457 0.14328775 -0.12613165 0.04104501
-0.06929466 0.027286021 -0.11629399 0.06020853 0.009482031 0.08214245 0.002301486 -0.0044038245
0.18586698 -0.11574312 -0.0010460416 0.04246878 0.065469 0.086215876 0.14819248 0.112296425
-0.02660188 -0.11588763 0.103273466 -0.07573276 -0.06303887 -0.020604156 -0.06356149 -0.16264792
0.06409397 -0.04635125 -0.049445737 0.057165332 -0.07827044 -0.12085029 -0.008074435 0.002286952
-0.1848756 0.08951661 -0.008650463 -0.04149441 -0.20262286 -0.07837753 -0.10019504 0.029881597
-0.09993036 0.08518069 0.028205454 -0.14187561 -0.11428841 -0.062847316 0.08572493 0.018207293
-0.13889757 0.08623711 -0.11355743 -0.10676304 0.098092444 -0.08600472 -0.060042426 0.10004644
0.0011214241 0.13418244 -0.10042808 -0.047440138 -0.015190424 -0.16111058 -0.033036232 0.1577073
0.12177802 -0.045434363 -0.09586167 0.11244115 0.019484416 0.081795454 0.18571703 0.21623039
0.08829081 0.13066009 0.10162642 0.008549954 -0.024430053 -0.0025035874 -0.11819475 0.01359263
0.020124938 0.015273246 -0.081171714 -0.060026523 0.04124749 0.04433958 0.09089814 -0.08051943
-0.03333042 0.01966572 -0.02956358 0.06728006 -0.008595124 0.12543592 -0.038575586 0.050094597
-0.0390092 0.029764876 -0.113581665 -0.07679365 -0.02317075 0.051891256 0.03231995 0.028485857
-0.012801797 0.12695566 0.14483024 0.06360562 0.083974354 0.010512945 -0.033922445 0.021920172
0.097648695 -0.024984194 -0.090986006 0.03618229 -0.028550899 -0.046931673 0.10629236 -0.023204653
-0.08554217 -0.10314165 0.10134134 0.12394208 -0.09068876 0.049643047 -0.027362872 0.006945667
-0.09835904 0.018748436 0.018451542 0.040359754 0.02741524 -0.051223952 -0.11916232 0.04753486
00000000: 1c9f 6a3e 5b65 a43d df69 483d 6f00 c53d
00000010: 141f 5e3e d778 9f3d 88fa 533e fd2c 1d3e
00000020: 53f7 263c 9624 853d c1e6 1cbd e575 99bd
00000030: 2bf5 f9bb ec6c f93d 52f4 93be 247f 8bbe
00000040: 2930 c2bd 482f 4b3d d29e ad3d 0ccb 9bbd
00000050: 8492 cebb 8b0c 51bd 1b8c a43d 05be 08be
00000060: 0f12 39be 87e6 aabd c7f2 b43d 7370 9dbd
00000070: 719b ddbd 8205 acbb 94f3 8cbd 4b49 7bbd
00000080: 44fa bebd f6cc 123d d308 60bd 6a25 9abd
00000090: 49ab 033b e1b2 b0bd c20c 82bd 4ad4 ddbc
000000a0: fa8f ec3c ef99 213d 2f3d 243d fcb1 abbd
000000b0: 30cd 90bc 2dc8 9ebd 6735 d9bd 83d9 97bd
000000c0: 9541 00be 20ec 1ebd 7585 d4bd d5b6 14bd
000000d0: 9db6 c93d d621 bc3d 1437 bdbd 65cc 483e
000000e0: ee2c 0f3d 6814 1a3e 5994 b8b9 f2f2 9f3d
000000f0: 1705 88bd f29a 663d 4e59 033e e08f ed3d
00000100: d256 fbbd 8f7d 0cbd 949d e5bc 2af0 a43d
00000110: e899 28bd 5b21 3f3c 5b13 0cbd 88b0 a3bb
00000120: f864 30bc a58e 98bd c0de 97bd 34fa cb3d
00000130: a28c bb3d 992a dd3a dac1 fe3d 374b c53d
00000140: 2adb 84bd 639b 4abd 1d27 bcbd d086 1c3d
00000150: 21e7 513c ed14 e2bc 3d36 b83d 7994 20bd
00000160: 7fcf 8ebd 144a abbd d850 69bd 70c6 ea3d
00000170: 3e69 56bd 91ea 13bd c826 3e3d e44f dfbd
00000180: 5b86 afbd 79f5 bf3d b23a 3fbd c318 98bd
00000190: 0868 bfbc 21cf 12bc db22 073d eed4 5a3d
000001a0: da5e cdbd 9741 ef3d c650 dbbd d4f4 123d
000001b0: 0095 cbbc f069 6bbd ed7a fd3d bbe0 cebd
000001c0: ad21 543b 9a9e a83d 7e87 d33d 0c51 b9bd
000001d0: 649a 1e3d 06ba 123e a828 01be d01e 283d
000001e0: 5cea 8dbd ef86 df3c 8b2b eebd 389d 763d
000001f0: 855a 1b3c 4d3a a83d 87d4 163b f54d 90bb
00000200: ea53 3e3e bb0a edbd 551b 89ba bef3 2d3d
00000210: 9c14 863d f391 b03d c5bf 173e abfb e53d
00000220: 30ec d9bc 7e56 edbd 0a81 d33d c719 9bbd
00000230: 861a 81bd 0cca a8bc 872c 82bd 2d8d 26be
00000240: b343 833d cfda 3dbd 9d87 4abd 3226 6a3d
00000250: 414c a0bd 5b80 f7bd a34a 04bc b0e0 153b
00000260: 0750 3dbe 7c54 b73d acba 0dbc 0bf6 29bd
00000270: 5e7c 4fbe 6684 a0bd 0f33 cdbd 40ca f43c
00000280: 4aa8 ccbd 3773 ae3d 200f e73c d747 11be
00000290: 0b10 eabd 18b6 80bd 8d90 af3d 7627 953c
000002a0: 2a3b 0ebe 159d b03d cc90 e8bd 95a6 dabd
000002b0: b1e4 c83d 3e23 b0bd 0cef 75bd 26e5 cc3d
000002c0: c0fc 923a 1f67 093e 3dad cdbd 9750 42bd
000002d0: 42e1 78bc 2cfa 24be 0051 07bd 067e 213e
000002e0: c166 f93d 6219 3abd 2053 c4bd 8c47 e63d
000002f0: c89d 9f3c 6084 a73d 9b2c 3e3e 806b 5d3e
00000300: d0d1 b43d c2cb 053e 8321 d03d 1b15 0c3c
00000310: 8921 c8bc 3a13 24bb 1710 f2bd 9fb3 5e3c
00000320: 0edd a43c a33c 7a3c 5b3d a6bd 5fde 75bd
00000330: 21f3 283d 6b9d 353d ce28 ba3d 5fe7 a4bd
00000340: 7a85 08bd 011a a13c 522f f2bc 21ca 893d
00000350: 90d2 0cbc 4672 003e 6f01 1ebd fe2f 4d3d
00000360: 1cc8 1fbd 78d5 f33c 819d e8bd fd45 9dbd
00000370: 96d0 bdbc ed8b 543d ed61 043d 2c5b e93c
00000380: a1be 51bc aa00 023e 614e 143e aa43 823d
00000390: bffa ab3d 7d3e 2c3c 43f2 0abd ef91 b33c
000003a0: 0afc c73d a7ab ccbc df56 babd e233 143d
000003b0: 93e3 e9bc 6d3b 40bd cfaf d93d af17 bebc
000003c0: bc30 afbd ee3b d3bd 0c8c cf3d 58d5 fd3d
000003d0: 07bb b9bd 8256 4b3d 1a28 e0bc 7a98 e33b
000003e0: 7770 c9bd 5296 993c b027 973c 4550 253d
000003f0: ed95 e03c 35d0 51bd 600b f4bd eab3 423d

bias f4 [64]
-0.08506934 0.027779289 0.097043194 0.09582764 0.02174402 0.043906182 -0.0010254803 -0.0049586482
-0.0069495114 -0.06978113 0.12733692 -0.11269082 0.123748146 0.040373415 0.07476222 0.005161322
0.053704593 0.076288775 -0.11097982 0.08057804 -0.032260377 -0.10740215 -0.08301058 0.0066615385
0.1031087 -0.10085749 0.03645514 0.06664021 -0.15578069 0.017968187 -0.05581946 -0.0026010845
-0.034100134 0.09213245 -0.10972327 0.11086308 -0.045855433 0.026696755 -0.010860637 -0.20978121
-0.032745223 0.090494946 0.032306213 -0.057472885 0.05897784 -0.06025471 -0.05183303 0.06157236
0.006997009 0.03015258 0.14070399 -0.033205327 0.036714498 0.06980141 0.017515661 0.13346206
0.0429149 0.094497025 0.09572836 0.030531002 0.024781533 0.06554455 0.06764139 -0.019587442
00000000: d638 aebd 6491 e33c 95be c63d 4841 c43d
00000010: 8420 b23c f8d6 333d 6969 86ba 287c a2bb
00000020: bab8 e3bb 69e9 8ebd 9c64 023e 72ca e6bd
00000030: ab6f fd3d 985e 253d ef1c 993d 4f20 a93b
00000040: 59f9 5b3d 4a3d 9c3d 6349 e3bd 1906 a53d
00000050: 7523 04bd a9f5 dbbd 7301 aabd 0949 da3b
00000060: a72a d33d 5f8e cebd fc51 153d aa7a 883d
00000070: f984 1fbe 0532 933c f2a2 64bd f576 2abb
00000080: 95ac 0bbd f0af bc3d 98b6 e0bd 2f0c e33d
00000090: e8d2 3bbd 27b3 da3c d0f0 31bc e3d0 56be
000000a0: db1f 06bd 6a55 b93d 8553 043d b068 6bbd
000000b0: bf92 713d a5cd 76bd df4e 54bd 4d33 7c3d
000000c0: 2a47 e53b 8b02 f73c b514 103e 4f02 08bd
000000d0: f161 163d 0bf4 8e3d 017d 8f3c 47aa 083e
000000e0: 89c7 2f3d a887 c13d 3b0d c43d 271c fa3c
000000f0: a402 cb3c 393c 863d 9287 8a3d d875 a0bc

weight f4 [1, 64]
-0.022560956 -0.0017582567 -0.054594204 0.010687049 -0.008105876 -0.003887077 -0.008159431 -0.2104929
-0.020237284 -0.0007653849 -0.17521723 -0.07453406 -0.014868533 -0.043623906 0.06305246 0.004059015
0.039303772 0.019365307 0.005243751 0.0011094387 -0.013536994 0.0036836406 0.06717509 -0.009377175
-0.024427613 0.0011821825 -0.04384343 0.022064848 0.06647964 0.014880753 -0.0010368424 0.023982102
-0.0267649 -0.033519723 0.008419067 -0.07972062 -0.033924725 0.013714623 -0.1207038 -0.17222108
-0.011226479 -0.10676147 0.10662555 -0.002393466 0.008167859 0.040222738 0.048130922 -0.027640596
0.07230199 -0.0053912536 -0.05478961 0.0010443106 0.00984516 -0.12214017 0.037029818 -0.03837687
-0.03779979 -0.02442457 -0.03629855 0.07335872 -0.041654665 0.0734695 -0.0021040973 0.044168223
00000000: c1d1 b8bc 4e75 e6ba 2c9e 5fbd bb18 2f3c
00000010: 82ce 04bc 55be 7ebb 22af 05bc 738b 57be
00000020: a9c8 a5bc 1ca4 48ba 256c 33be 50a5 98bd
00000030: 269b 73bc fbae 32bd a621 813d 7c01 853b
00000040: fefc 203d fea3 9e3c c6d3 ab3b 966a 913a
00000050: 45ca 5dbc 3c69 713b 1893 893d b9a2 19bc
00000060: 6b1c c8bc 76f3 9a3a 2b95 33bd 57c1 b43c
00000070: 7a26 883d 67ce 733c a8e6 87ba 1d76 c43c
00000080: 1042 dbbc fa4b 09bd 20f0 093c 9044 a3bd
00000090: a7f4 0abd 4cb3 603c 8e33 f7bd b95a 30be
000000a0: 44ef 37bc c2a5 dabd 7f5e da3d b2db 1cbb
000000b0: 7cd2 053c 99c0 243d ee24 453d 886e e2bc
000000c0: 1113 943d 1da9 b0bb 126b 60bd 40e1 883a
000000d0: 984d 213c a024 fabd 94ac 173d 1131 1dbd
000000e0: f4d3 1abd 0916 c8bc caad 14bd 193d 963d
000000f0: 159e 2abd 2d77 963d e5e4 09bb bde9 343d
